A2-神经网络基本原理简明教程/step5-NonLinearClassification/mnist_64_16/w_16_10_Xavier_init.npz (npz, 1868 bytes, 2 tensors)

weights f8 [16, 10]
000000 f0 c1 42 e1 aa f7 92 3f 90 7d 29 e8 c8 7c b1 bf
       0.01852290153391495 -0.06831031482714978
000010 be 48 4d 88 ae 42 c2 bf e4 91 3d 92 f9 43 d2 3f
       -0.14265996604314596 0.2853988578920321
000020 b2 70 c8 bb ae 55 c0 bf 2e 97 7a 08 93 cd d2 3f
       -0.1276148240002662 0.29379726245894033
000030 5a 54 e3 e9 31 97 d9 bf 44 87 f2 23 7e 59 ce 3f
       -0.39985320892930576 0.23710610156291
000040 fc 43 7e 60 d4 64 b8 bf d6 65 56 ff d1 b0 da 3f
       -0.09528853755752204 0.4170422547846021
000050 a0 d4 cc 6b e3 1e aa bf 62 95 5b ca 84 25 d6 3f
       -0.0510169095127051 0.3460399604940304
000060 6c 87 47 a9 2b 34 d1 3f 02 f7 ef aa 0e 21 d5 bf
       0.26880923777763743 -0.33014265721418223
000070 08 c5 88 31 83 2e d8 3f ba a4 b9 91 8e b3 d0 3f
       0.37783889615373356 0.2609592841241227
000080 2e cb 19 5a 20 57 c7 bf 3c f7 a2 3c d9 5e d2 3f
       -0.1823463859505749 0.2870390979913855
000090 8c 55 7f e4 3e 83 c6 3f 9d 93 83 6e f6 dd cc bf
       0.17588030011272016 -0.22552376171293256
0000a0 2b 7a 84 d5 97 54 cb bf 40 dd f6 5f c4 fd b4 bf
       -0.21351907659205102 -0.08199717848662136
0000b0 ed be 0d 72 32 d7 d5 bf 70 cd b4 6b 27 f5 9a bf
       -0.3412595857434855 -0.02632581324469413
0000c0 50 57 4b bc b4 61 d9 3f 40 cd 9e c4 fa a7 cb 3f
       0.3965885008632215 0.21606382942773372
0000d0 1e 58 3b e7 37 b0 d8 3f b2 ff 62 ec 76 26 dd 3f
       0.3857555158732583 0.45547268948211717
0000e0 04 76 c7 16 ff 83 d6 bf bc c5 d1 0e de 65 d6 bf
       -0.3518064234211524 -0.34996749350747414
0000f0 5e c0 05 50 24 da d6 bf 58 f8 4d 83 d2 2b cc 3f
       -0.3570643216580772 0.22008735095363607
000100 20 c0 23 16 61 ba 9e 3f ac 66 69 b2 fe 4c d2 3f
       0.030007855392739313 0.2859493963529569
000110 28 83 6f e1 d7 49 c3 bf 3c 7d 32 b1 2e 02 d6 3f
       -0.1506910181770078 0.343883202594913
000120 20 94 80 e9 05 9e b2 bf ac 44 01 59 98 e1 c2 3f
       -0.07272374106158042 0.14750961633629822
000130 cc 48 ab 47 12 bb d4 3f c0 cf 83 5f 30 ce 9a 3f
       0.3239179325002055 0.026177173452154312
000140 62 a0 67 74 df 80 d9 3f bc 80 3b bc 84 eb b4 bf
       0.3984907757535493 -0.0817187270690764
000150 9c 9e 09 95 c7 b4 bb bf e2 2f 94 d0 92 c3 d3 bf
       -0.10822722805607515 -0.30881185883549567
000160 20 4f fb 9d 47 ce 84 3f ca 16 9b 4a 00 ba d4 3f
       0.010159072407453673 0.3238526085445811
000170 08 ca b3 2e b1 bf bb bf fe a4 1d 04 93 52 d8 bf
       -0.10839373960678966 -0.3800399341767643
000180 20 84 c2 b0 28 61 d3 3f dc 83 ca 57 cf 8b bc bf
       0.3028051115198327 -0.11150833028160839
000190 e4 c7 15 8d 2b 5a b0 bf 04 68 10 a6 c5 33 d2 bf
       -0.06387588686428064 -0.2844099160880662
0001a0 d8 04 da 35 de b9 b0 bf e4 f1 07 af 3c d5 cc bf
       -0.0653361207460138 -0.225257478203175
0001b0 24 b0 e1 44 4d 43 d7 bf b1 39 b3 c8 1c 75 ce bf
       -0.36348277785032423 -0.2379489879589989
0001c0 be f2 ab 66 9c a8 c4 bf f0 b5 4e 60 45 76 95 bf
       -0.1613955975843932 -0.020958980563298313
0001d0 30 ea e4 fa f8 19 d7 bf e8 ed 2a 6b 66 ef d9 3f
       -0.360960240377298 0.4052368208465098
0001e0 64 07 80 80 07 a7 d7 bf 20 c2 9e 3a 54 15 92 bf
       -0.3695696596988596 -0.0176594887522602
0001f0 ea 22 48 ef 7f c2 d6 3f 34 25 fb 75 bf c0 cf 3f
       0.35562132232057186 0.2480696989135055
000200 41 ff 63 32 e9 31 d9 bf 84 3e fa 1c 74 83 c4 bf
       -0.3936713211150967 -0.1602616445056705
000210 16 52 32 21 cc a1 de 3f e0 d3 b5 fd 87 39 85 3f
       0.47862532846309713 0.010363638334391412
000220 f4 19 01 30 01 7d ce 3f 94 c7 1e 45 f7 7f b2 bf
       0.23818983882865974 -0.07226510465150532
000230 ac 40 c3 1c 8e 11 cb 3f a7 ed cd 86 6c bb ca bf
       0.2114732399409197 -0.20884472448584043
000240 60 b6 5d a5 a4 9c b3 bf 30 25 74 cb 05 ba cb bf
       -0.0766089347577803 -0.21661446031820608
000250 51 8c f3 30 e0 8a ca bf d0 61 23 61 9e 2a a1 3f
       -0.2073631514568626 0.03352827964562588
000260 f0 21 b3 2a 12 a7 cd 3f 80 04 03 51 e5 0c bb 3f
       0.23166110119770122 0.10566552379443017
000270 8a c4 22 59 0a 31 c5 bf 70 3a 10 78 29 fa d3 3f
       -0.1655590949281172 0.3121436760419902
000280 9b b7 f3 8a e3 63 db bf 30 af b5 c2 a7 46 bc 3f
       -0.4279717308953594 0.11045311454443829
000290 5a 1d 79 22 f4 ca d0 3f c0 49 93 ea 71 2a 86 3f
       0.26238730780138086 0.010823144885226621
0002a0 eb 3d 92 88 f9 9a cf bf 9c 65 c3 c6 73 86 c2 3f
       -0.24691695374029562 0.14472815709340814
0002b0 32 3f 62 ee 47 67 d6 3f 98 ce ed 94 2b 61 b5 3f
       0.35005377082505895 0.08351395021400732
0002c0 30 c1 2e 0f a6 0d 92 3f 90 d8 19 9b d0 86 c0 3f
       0.01763019054095699 0.1291142232254896
0002d0 10 f5 88 ff 5d b9 bc bf 32 25 7d 16 a3 98 d9 bf
       -0.11220347870490266 -0.3999412269227661
0002e0 80 7d 0d ba 3f 5c 80 3f d8 f9 7d 8b d5 af b2 bf
       0.007988450875642483 -0.07299551635330859
0002f0 24 1e 18 4e d0 eb d6 3f ab df ec 8d b8 47 ce bf
       0.35814292551410376 -0.2365637486452646
000300 80 a3 85 c5 58 7f c5 3f 16 f7 de e7 03 df d3 3f
       0.1679488148177164 0.31048677104614464
000310 ce 4b 3b ab a1 c7 d8 3f 4c 15 b1 e6 8b d4 b1 bf
       0.3871845409568636 -0.06964945203897804
000320 18 97 20 83 69 98 a0 bf 5e 4e 2b 19 7a 7a d0 bf
       -0.03241281247782818 -0.2574753995697615
000330 fd ec ed 05 41 5b cc bf 88 14 09 52 f5 3f cb 3f
       -0.22153485097428663 0.2128893518985573
000340 9a e6 dc da f7 a9 c3 bf da 0e 23 0d 8b c5 d8 3f
       -0.15362451731362087 0.3870570781984789
000350 40 3a d5 59 38 55 81 3f 80 45 bf 36 b5 b8 76 bf
       0.008463325730784566 -0.005547244898438719
000360 a0 3f c4 82 62 47 b5 3f 59 4b 0e 9f a3 47 d8 bf
       0.08312049572509617 -0.3793725064544354
000370 a0 d4 26 40 34 ce ce 3f a8 29 1a 4d 03 bf d7 bf
       0.24066784984976142 -0.37103350190650497
000380 c0 0a f9 fa fa ee 83 3f 58 eb 00 02 82 1b cb 3f
       0.009733162674029017 0.2117769727500114
000390 80 9b 5b ff 69 c6 b8 3f 50 d6 75 d6 11 e9 ba 3f
       0.09677755817720701 0.1051188610634537
0003a0 e0 a9 44 60 1b cb 88 bf e0 68 61 c5 88 35 d1 3f
       -0.012106145739910923 0.2688924720329293
0003b0 18 d5 a2 8d 35 75 c0 3f 28 e2 2c 65 7f f6 a8 3f
       0.1285769406874031 0.04875562772798886
0003c0 72 f1 f9 6d 2f 2e d6 bf ce 26 e4 b5 5e ea d6 3f
       -0.3465689252841663 0.35805480730833217
0003d0 6c 29 4d 6a b5 b6 d1 3f f8 ec 25 5b a6 bc de 3f
       0.2767766512012233 0.4802642717474579
0003e0 e6 0a 95 a4 51 28 d3 3f 20 e6 ef 6e 86 12 bd bf
       0.2993358714340232 -0.1135639210550825
0003f0 2e 83 2e 71 74 a9 d8 3f 3e df ba 88 1a 70 d0 3f
       0.3853427033700879 0.2568422637227633
000400 cb 17 c9 a8 14 ac d6 bf 1c df ce 4f a2 b8 b5 bf
       -0.3542529724403464 -0.08484854172172301
000410 b4 69 7b db a4 d3 c0 3f 18 cf 6c 0b d1 11 d5 bf
       0.13145886151217 -0.32921243777967524
000420 15 55 9a 5a c6 a2 d4 bf ec 1a d6 a5 f0 dd d5 3f
       -0.32243498657165165 0.34167114443736923
000430 9c f1 11 3e bc 17 ca 3f 64 82 11 58 b3 68 d9 3f
       0.20384934454694992 0.39701541519574435
000440 42 ba 4b 22 68 25 d0 3f 60 2d 60 f2 9c 5b b4 3f
       0.2522831282539394 0.07952290456176092
000450 b8 67 fc 6c 3f db d5 3f 34 8a ce 8b 43 da db 3f
       0.34150682109031605 0.4351967683125253
000460 a0 98 88 65 fe e8 ca 3f e0 81 73 41 e5 58 85 bf
       0.21023540456480294 -0.010423461017524838
000470 b4 aa e4 e5 76 ae c1 3f 60 a2 16 9d 69 40 d4 bf
       0.1381367323422943 -0.3164314302507929
000480 00 5a 2c 40 73 cb a7 3f 88 cd 7b 2b a0 2f ac bf
       0.04647407682766769 -0.05505085497670864
000490 42 82 64 df f2 ea d1 3f 4c f1 40 99 7b ca d8 bf
       0.2799651319092257 -0.3873585697763431
0004a0 6a c6 13 06 2e 8e d4 bf 2e 9d 42 02 4e 4e d9 3f
       -0.32117796510201535 0.39540434094165533
0004b0 90 d5 da 40 bb f7 ca bf a6 b6 ba 4a 75 6a ca bf
       -0.21068516413440053 -0.20637384556669253
0004c0 1a f8 de 5e 34 24 c9 bf 16 23 2c 83 63 05 d5 3f
       -0.19641737587329616 0.328453901384408
0004d0 1c 17 08 61 b4 d2 bb bf fa 1d b5 81 d7 9d dd 3f
       -0.10868384713111506 0.4627589003252691
0004e0 a8 eb 3e c0 20 a4 b5 3f 00 0d 6c 73 3e cc 7c 3f
       0.08453564351559228 0.007030719708157607
0004f0 00 7a 06 96 a1 58 94 3f fc c2 fc 44 d4 28 c8 3f
       0.019869351178948946 0.18874600761912308

bias f8 [1, 10]
000000 00 00 00 00 00 00 00 00 00 00 00 00 00 00 00 00
       0.0 0.0
000010 00 00 00 00 00 00 00 00 00 00 00 00 00 00 00 00
       0.0 0.0
000020 00 00 00 00 00 00 00 00 00 00 00 00 00 00 00 00
       0.0 0.0
000030 00 00 00 00 00 00 00 00 00 00 00 00 00 00 00 00
       0.0 0.0
000040 00 00 00 00 00 00 00 00 00 00 00 00 00 00 00 00
       0.0 0.0
