A2-神经网络基本原理简明教程/step5-NonLinearClassification/mnist_64_16/w_16_10_Xavier_init.npz (npz, 1868 bytes, 2 tensors)

weights f8 [16, 10]
000000 00 01 b7 95 75 fa a7 bf 8c 23 4b 77 66 c7 b4 bf
       -0.046832727933635354 -0.08116760647238958
000010 00 e4 6a 91 c7 2c 3d bf 9e cc 07 01 2e f3 d6 3f
       -0.00044517395273718785 0.3585925111830849
000020 c2 06 3a 33 e1 1b d2 bf 08 dd 5a 1e 61 43 d2 bf
       -0.28295164110759796 -0.2853625103411592
000030 f0 58 1f 3c 61 e1 ad bf 36 79 c4 95 96 a9 d7 bf
       -0.05836013659397732 -0.3697258436749452
000040 ae a3 17 a1 28 73 d9 3f 4b c1 c5 70 da 31 da bf
       0.3976537297408481 -0.4092928029340512
000050 48 06 b4 0a 22 5f db 3f fa a3 94 88 32 24 dc 3f
       0.42768145604359065 0.43970931375457634
000060 04 36 b9 99 b2 58 c8 3f 78 26 07 f4 eb 42 dc 3f
       0.19020683771161384 0.4415845759473096
000070 c2 77 34 fc 6c ed d6 bf 80 30 9c 0e 76 9e c4 3f
       -0.35824131612195853 0.16108585084328197
000080 3e 12 5a 52 ae 41 c1 bf 58 73 a9 d5 eb 66 bb bf
       -0.13481692334257106 -0.1070392033229387
000090 e4 46 2a 4b 18 56 c0 3f 44 df 16 e1 67 fd b7 bf
       0.12762740774319703 -0.09371041531892127
0000a0 34 74 d3 80 33 bf d0 bf ec ef 28 ee c9 b3 d6 3f
       -0.2616699941698386 0.3547234369068508
0000b0 04 51 b1 63 a5 02 b0 bf f8 cb 66 84 88 b8 b8 3f
       -0.06254037555601505 0.09656575424632752
0000c0 84 a0 aa b1 4a 56 bf bf 78 19 f7 ce ac df db 3f
       -0.12241045796929667 0.43552704059074854
0000d0 70 0e 12 5b d9 4b a1 bf e0 5f 8c 9d 5b 82 81 bf
       -0.033781807295807265 -0.008549419160360061
0000e0 de 20 9a 2d 63 27 d6 3f 56 aa 51 23 f1 ae d0 bf
       0.3461540170033127 -0.2606776089584505
0000f0 db 9a fb 03 a1 24 ca bf 1a 6b 81 dd c0 3f d3 3f
       -0.2042428273627682 0.30076619750404776
000100 ca 17 f0 50 91 01 ca bf a4 66 49 15 db 67 cf 3f
       -0.20317284061473934 0.2453569272936892
000110 e8 60 20 4e 51 19 cd 3f 8e 2c 4b 6e 54 96 c5 bf
       0.22733513178605524 -0.16865020165855465
000120 e4 25 c7 6b f3 34 be bf 23 63 f5 a2 c8 a2 c7 bf
       -0.11799546605393335 -0.1846552653976455
000130 74 76 e2 dd 43 96 c5 bf ec 16 15 31 91 44 d2 bf
       -0.16864822706422766 -0.2854350070304992
000140 18 b1 ec 82 05 fc a7 3f d4 26 e4 8a d7 b6 de 3f
       0.04684464667511373 0.4799097877845331
000150 40 be c6 8b 21 39 a8 3f 3f 9a 5d 71 b7 07 d8 bf
       0.047310875237027705 -0.3754709822737005
000160 28 f4 15 17 98 38 c7 bf 70 20 6b 8d ab 92 d0 bf
       -0.18141461493715494 -0.2589520340957341
000170 10 40 19 c4 43 7c d1 3f c0 cc 49 ad 8a 25 98 bf
       0.2732095160508843 -0.023580710245778347
000180 9c 82 d7 00 be f3 cb 3f 46 d6 40 31 f6 99 d4 3f
       0.2183759216414004 0.3218970757473908
000190 ae b0 e3 0c 21 8f d1 3f 38 e5 f8 e2 8a 28 b8 3f
       0.2743609071610632 0.0943686298495735
0001a0 01 ad d8 fd 5b e4 d2 bf 9e 2a b8 1b 04 46 d0 bf
       -0.2951879481285716 -0.25427344042751965
0001b0 f6 c5 9e 18 59 54 cd bf 70 1f fb f2 88 b3 da bf
       -0.22913659765394784 -0.4172079441891503
0001c0 7a 8d 9b 3d 3d a7 de 3f a0 41 af ef e0 09 9a 3f
       0.47895747200364946 0.025428309086977685
0001d0 00 2e ae f7 b4 f2 ae bf 10 77 6c f4 72 18 be 3f
       -0.06044545672838453 0.11756056277632987
0001e0 f2 81 1c 3d 04 e8 d1 3f c8 c1 c4 a3 3c 25 d6 3f
       0.2797861668387035 0.3460227584173734
0001f0 17 a4 17 86 91 50 cb bf 94 8e d3 56 80 c2 c5 3f
       -0.21339625403860005 0.16999820937700305
000200 84 29 d7 f6 be cf c8 3f 36 36 ca 1a 95 8e c6 bf
       0.19383990338094403 -0.1762262707529076
000210 b8 7e d9 73 ff 1e d6 bf 32 6a d7 1e 90 d4 c2 bf
       -0.34564195931850916 -0.14711190706187122
000220 4e 1f 41 15 b8 e4 d4 bf ca b2 9d 2c ba 1a c6 bf
       -0.32645990443824224 -0.1726906507350548
000230 da 86 92 f3 1a 64 d2 3f 0c 20 0f 4a ff c5 d7 bf
       0.28735994135250353 -0.3714597914918165
000240 30 e8 59 f5 86 f6 94 bf 6c 50 99 09 81 1a cd 3f
       -0.02047167656426313 0.22737133949943045
000250 14 23 4f f6 b4 b8 c5 bf ea ec 89 da a4 80 da bf
       -0.16969930674374523 -0.41410180417706377
000260 69 67 2c 31 ef 33 d4 bf 84 8e 43 d2 6e 2d b1 bf
       -0.31566982080550204 -0.06709950097461542
000270 70 bd 0d 67 50 ce d6 bf e4 81 09 8e 25 20 ca bf
       -0.3563424116500391 -0.20410603938491
000280 68 7f 97 7e 38 e0 c1 3f 34 3f db 36 bb 7a c5 bf
       0.13965517216910972 -0.16780796221291328
000290 84 5f 5c 89 d7 a0 cd 3f 3e e3 35 2a 81 85 d3 bf
       0.23147100646087548 -0.3050234710895444
0002a0 34 95 1e f9 19 e6 cb 3f ac 1e 71 d9 7f 4e c5 bf
       0.21795963920627914 -0.16645811192778603
0002b0 00 57 2d a9 06 1b 7f 3f b2 92 50 94 d6 06 d0 3f
       0.007594133395135705 0.25041737064229175
0002c0 ee 80 24 06 c1 6a d4 bf a8 c4 0b ec b9 71 cf 3f
       -0.3190157470690015 0.2456581499641619
0002d0 88 c1 98 cd e9 29 a5 bf f8 f2 f1 7c 25 d8 a1 bf
       -0.041335398051503935 -0.03485219145020396
0002e0 f0 34 bc ce 9c 5e b2 3f 6c ae 19 bf 2a 57 c7 3f
       0.07175617263074563 0.18234762507505609
0002f0 ae 5e c5 80 dc d7 d2 bf 78 07 c4 cd 3f d4 b4 3f
       -0.2944251306084692 0.0813636662824403
000300 74 3e ae 58 4e f1 d7 3f b2 13 20 c1 79 02 c2 bf
       0.3741031518957023 -0.1407005494112617
000310 ac 76 28 81 ea 9a c5 3f 48 3d a0 34 a6 00 be 3f
       0.16879016214891374 0.11719740662396305
000320 78 df 43 2f 11 af cf 3f ec 36 d8 38 a9 69 bf bf
       0.247530124739338 -0.12270600927169156
000330 d0 76 29 63 b5 69 93 bf 50 c9 c7 04 c8 3b b1 3f
       -0.01895793359505299 0.0673184405966698
000340 6a 8b e1 2c db 70 d2 3f 70 2e 3b e7 91 c8 b8 3f
       0.28813819296754295 0.09681045432369628
000350 48 3b 84 b2 bf c5 a8 3f be 88 99 a1 43 ad c1 bf
       0.04838370374829154 -0.13810010328876915
000360 04 d4 75 6d 08 ae b4 bf e0 0f 39 14 d1 8e 99 3f
       -0.08078053161973747 0.024958865031535882
000370 00 82 45 6f 61 10 b4 3f f8 03 d1 ca e3 44 a8 bf
       0.07837494818296165 -0.04740058756625126
000380 3a 57 82 a8 80 a9 c5 bf 78 cf d0 f4 83 80 b1 3f
       -0.16923530796037217 0.0683672402090546
000390 e2 b8 10 46 13 55 d1 3f 18 14 a0 bd c8 49 d2 bf
       0.27081758348766816 -0.2857534267243991
0003a0 08 02 f1 ac 95 cc d9 bf dc d3 3b 7d 31 7f be bf
       -0.4031118573075507 -0.11912831599677481
0003b0 40 6c 9b 7f 5e 6e 91 bf 60 56 39 b3 a1 1d af bf
       -0.017022587336082973 -0.06077294647972731
0003c0 70 10 12 06 78 7d ca 3f 7f 03 18 ca 79 bc c7 bf
       0.20695400520719742 -0.18543932311879627
0003d0 90 fc 51 7a 9d a9 bc bf 69 c4 c7 18 0f 1c d5 bf
       -0.11196312176069712 -0.32983758373217725
0003e0 f6 61 c9 1d 73 41 c3 bf a0 3d 43 3d 93 42 c3 3f
       -0.1504348655169136 0.15046921244946265
0003f0 58 74 3e 69 18 47 b9 bf 5e 86 dc 9e e9 d5 d1 3f
       -0.0987410790389317 0.27868118776141226
000400 f0 ee 7e 74 8e 3a b1 bf 9e e3 60 74 8c f5 c3 bf
       -0.06729975074898298 -0.15593105013411174
000410 00 d5 d1 14 35 94 d8 3f c9 de 3d c8 be ba c8 bf
       0.38404585869950836 -0.19319901254106345
000420 c8 b6 f4 86 3c 3f b1 3f 9a ba 8b 38 70 eb d0 3f
       0.06737116141149635 0.2643700172620044
000430 84 bb 87 3f e7 ff db 3f 04 a6 89 65 af 0a d0 3f
       0.43749409870263656 0.25065216937818513
000440 bc 8d 48 04 bf 44 c9 3f 2e 0d 12 15 8b 77 da bf
       0.19741046628142367 -0.4135463433996901
000450 85 f2 2b b4 61 39 da bf 28 de 27 36 f5 15 d8 3f
       -0.4097522983063658 0.3763402012695871
000460 4c ce fa 57 61 82 de 3f d4 c9 8c b2 1a d6 da 3f
       0.4767077788521632 0.4193178886081601
000470 0e 8b a1 16 d3 85 d6 3f 20 e7 27 0f a0 5f be 3f
       0.35191800317822775 0.11864662523285263
000480 cc 07 52 1e 36 cf b0 bf a6 29 f0 2c 4a fa d0 3f
       -0.06566179504628095 0.2652764738892536
000490 ca 72 ef cb 07 a4 da 3f e2 c1 e7 47 66 8b c5 bf
       0.41626162448464454 -0.16831663619042475
0004a0 8a 51 2f 95 56 6e d2 3f e0 24 04 fc e5 e6 d7 bf
       0.2879845101245101 -0.373467918500479
0004b0 40 6c 6c 33 16 30 71 bf ac c2 f8 b4 bf ab c3 3f
       -0.004196249696884868 0.1536788591052035
0004c0 70 98 ab d3 93 73 da bf 66 ee 26 44 e1 19 cb bf
       -0.4133042876332018 -0.21172729327905698
0004d0 40 af 16 1a a8 35 c2 3f 06 62 28 97 34 a5 de 3f
       0.142262470949726 0.4788333393239842
0004e0 63 a6 42 f2 fc 27 cc bf 98 20 b6 01 92 fc b5 3f
       -0.21997033909910887 0.08588516752036168
0004f0 f0 6f 1c 72 15 03 99 bf 0c da 25 88 dd 27 c0 3f
       -0.024425826158321173 0.12621659419865272

bias f8 [1, 10]
000000 00 00 00 00 00 00 00 00 00 00 00 00 00 00 00 00
       0.0 0.0
000010 00 00 00 00 00 00 00 00 00 00 00 00 00 00 00 00
       0.0 0.0
000020 00 00 00 00 00 00 00 00 00 00 00 00 00 00 00 00
       0.0 0.0
000030 00 00 00 00 00 00 00 00 00 00 00 00 00 00 00 00
       0.0 0.0
000040 00 00 00 00 00 00 00 00 00 00 00 00 00 00 00 00
       0.0 0.0
