A2-神经网络基本原理简明教程/step5-NonLinearClassification/mnist_64_16/w_64_16_Xavier_init.npz (npz, 8828 bytes, 2 tensors)

weights f8 [64, 16]
0	0xbfc3cb663c563555	-0.15464475580339845
1	0xbfc189843decd2ac	-0.13700917266546264
2	0x3f98347362a8c1b8	0.023637583634071396
3	0xbfc90c9033af748a	-0.19569590114307217
4	0xbfc73dd7c4421be4	-0.1815747936527422
5	0x3fa3ecb24f2d0c38	0.03891522614005577
6	0xbfc4da698b92e051	-0.16291541400073808
7	0x3fb2806e47d49cc0	0.07227219823527076
8	0xbfc22f3abc48250a	-0.14206632798622137
9	0x3fcaf081e07338e0	0.2104647012660683
10	0x3fc4ba0b799c300c	0.16192763746255456
11	0xbfabe9a2848290d4	-0.05451686732820496
12	0xbfb91fe237b8aa40	-0.09814275608429401
13	0xbfa88ab83e80b1e4	-0.04793334734890545
14	0xbfa0c281949ef2a0	-0.03273396434039921
15	0x3fb6a4634ab5fb08	0.08844585966106078
16	0xbfc5a7e43ef34081	-0.16918614457836514
17	0x3fc8c250b42c3eec	0.1934300307989284
18	0x3fcc727c9aeda496	0.22224385800226248
19	0xbfaebab2c93027f0	-0.06001814561757601
20	0x3fb82aefbd65080c	0.09440515874760552
21	0x3f71240cf5f28b80	0.00418477118288052
22	0x3fd18597c230f62d	0.27377885784139516
23	0xbfc1ef0d76c70f52	-0.1401078062027588
24	0xbfc4b5d89c9a35fc	-0.16179950377083674
25	0x3f8e7544b1c88440	0.014872109103693743
26	0x3fc908e9307dd5ba	0.19558443897009942
27	0xbfb328e30bee8970	-0.07484263459494911
28	0x3fc11de64b52f342	0.1337249629777038
29	0x3fa20076d10ecad0	0.03515979101157074
30	0xbfaf02b85cfdd01c	-0.0605676282420122
31	0xbfcb3e8242b3e9ac	-0.212845118112296
32	0x3f6b95dc508e3040	0.003367357542122945
33	0x3fb2f78d445a41b8	0.0740898410679226
34	0x3fd07f1d2cacec4b	0.2577584205898275
35	0x3fb6d6a6e9b3842c	0.0892128296432168
36	0xbfb12384e7d96a4e	-0.06694822941191456
37	0xbfbb48eff58b25d8	-0.10658168549266323
38	0x3fc788945a785f06	0.18385557572832328
39	0xbfb877a8df2ea3f8	-0.09557586144241259
40	0x3fd081c49bfb596e	0.2579204104671565
41	0xbfb08f6129de3cd6	-0.06468779823466106
42	0xbfbbe10135f22674	-0.10890204970396572
43	0x3fb57381a5b98348	0.08379373832714265
44	0x3fbf36703188f0e8	0.12192441186283853
45	0xbfb1482e35d746e2	-0.06750763716197697
46	0x3fbb423b565f4ff4	0.10647936686228815
47	0x3fbbe0f44cdce45c	0.10890128017935424
48	0xbfa1836f045781f8	-0.03420588424683396
49	0x3fc85df974598b90	0.19036787205831418
50	0xbfc1e2a66ebcc8f4	-0.1397293129644549
51	0xbfb9a373bf6909dd	-0.10015033171752159
52	0x3fba21525c011a2c	0.10207094904135577
53	0xbfb0bbb07126757a	-0.06536391031700886
54	0x3fd01eb7a46b924f	0.2518748384157207
55	0x3fbe1023e9c8bd6c	0.11743378121967901
56	0x3fc5ebd085ac43f2	0.17125898863790173
57	0x3fc9ed19751cf7da	0.20254820078292718
58	0x3fc5a01bcfd29e74	0.168948627925818
59	0x3fa0cfafaf6bd24c	0.032834520496099445
60	0x3fc777636e025eaa	0.18333094474359274
61	0xbfca56b4fcb54e30	-0.20577108706730618
62	0xbfbf1484bcf8b664	-0.12140683759272403
63	0x3fc05d79cde2d53e	0.12785265496283132
64	0xbfc54e94d79ebea6	-0.16646061447453525
65	0xbfc9afa000ff2593	-0.2006721501223124
66	0x3fb374311e36def0	0.07599169719366805
67	0x3fc01184523f4592	0.12553457275366192
68	0x3fcc4be95ea6a4b4	0.22106663819912387
69	0xbfb3222c47b41c62	-0.0747401881272807
70	0x3fc30c7b3f4c8a1e	0.14881840315600042
71	0x3fb437f6fe5fcc58	0.0789789553671637
72	0xbfc79a30805ef58a	-0.18439298885452288
73	0x3fcb577ee37a66f4	0.21360765559511885
74	0xbfc1e19a80fb8950	-0.1396973733709026
75	0x3fc77de5e170613c	0.18352960117113948
76	0x3fbf52af2fac4788	0.12235541261568816
77	0x3faa6a4190d284d0	0.05159191983080691
78	0x3fb3f5e5f17518c0	0.07797085900265
79	0xbfc7525cd1b6f4c1	-0.18220100631689287
80	0xbfba6eae7eab2a19	-0.10325136749740017
81	0x3fc4191c2275c9a0	0.15701629335997058
82	0xbfbd9f9f50bc6fd2	-0.11571689339729055
83	0x3fc00639266fef3c	0.125189918296991
84	0x3fc09481e68eb912	0.12953208692255963
85	0xbfb078bb0bf4444a	-0.0643422035393694
86	0xbfb4caa9294214c6	-0.08121735818174888
87	0xbfbf34487762174d	-0.12189152636173368
88	0xbfa21d6edd500ca0	-0.035380806461057235
89	0xbfbf1e1ba66bae5c	-0.12155316174510616
90	0x3fb881a821767d1c	0.09572840516056086
91	0xbfb11f8cd676ce06	-0.06688766704501611
92	0x3f9eaa75f54a7e68	0.029947131248830777
93	0x3f94d7edcdc97ed8	0.020354953465697573
94	0x3fc355541a1f5cf8	0.15104151988519
95	0xbfae6406047e37ec	-0.05935686879011812
96	0x3fd074a1591157b7	0.25711854646703663
97	0xbfa72c550439bbb0	-0.04526010204869324
98	0x3fc838f304e4bf30	0.18923795451109404
99	0xbfc316029bb637f2	-0.14910919764628222
100	0x3fa21a8bc091b1c8	0.03535877919862035
101	0xbfa416db6b1cd024	-0.0392368858578325
102	0xbfbde270b2305727	-0.11673645353615979
103	0xbfc83480e3f1f21b	-0.18910227899677143
104	0xbf7231054340d940	-0.004441280896619937
105	0x3fd161a929d4a27a	0.27158574185390416
106	0x3fcae252def4187c	0.21003185163880633
107	0x3fc0163a0de3b39c	0.12567830732532748
108	0xbfae920f22ba0b54	-0.05970809267912239
109	0x3fbdd8cfe932e20c	0.11658954089478629
110	0xbfc5f0174e2543c9	-0.17138949695302433
111	0x3fb8452a34fe2658	0.09480537217873442
112	0xbfb8ddb62dcd0898	-0.09713305109201753
113	0xbfbb4fe1aad68644	-0.10668764515733026
114	0x3f9d967349854c78	0.028894235002848906
115	0x3faab6f4a55aad00	0.05217709082111277
116	0xbfc2529d2b9eecc3	-0.14314617757722745
117	0xbfab4e6651f3a3ec	-0.0533325171507569
118	0xbfb118a1e4458e34	-0.06678211043395593
119	0x3fc135ac72403246	0.13445048884058702
120	0xbfc1ae8d3cf47173	-0.13813939548789342
121	0xbfbb8b1a1dd45334	-0.1075912783456488
122	0xbfb4e4a596460e78	-0.08161387366095052
123	0x3fc8f02d30142c0c	0.19482960555646434
124	0xbfc607438bd4a914	-0.17209667518302096
125	0x3fcccd83dcb50c92	0.22502182270736576
126	0x3fcc2943963cc1c8	0.22000927768523426
127	0x3fd10195c4c806f9	0.2657217427914556
128	0xbfc587b14eee1855	-0.16820350984579827
129	0x3fc8b7f03a96e3de	0.19311335430918936
130	0x3fba6fe2cabb484c	0.10326974343777912
131	0xbfafe7d37e371b30	-0.0623155681201325
132	0xbf98a946562125c0	-0.024083231932569893
133	0x3fb2f6258a9c8b08	0.07406839975423563
134	0x3fca4dbb0098ed2c	0.2054971459309426
135	0xbfbcac7dfb25fd21	-0.11200702077438908
136	0xbfa072cc07314e5c	-0.03212583148765866
137	0xbfc321679f38825e	-0.14945693277788313
138	0x3fbb176771eeeeb0	0.10582586795401983
139	0xbf7e748268355560	-0.007435330774872767
140	0xbfcb4e4887c8d8a9	-0.2133265173922088
141	0xbfb8966a3b0d293e	-0.09604515020069912
142	0x3fd0e009a19b23b8	0.26367417127454074
143	0x3fc256119a5d6366	0.1432516101583829
144	0x3f9b364aba718b20	0.026574294690713818
145	0xbfc55c951409b4e2	-0.16688788870252497
146	0x3fce7158897e7ce8	0.237834040771282
147	0x3fbc35ff74856840	0.11019894213441805
148	0xbfc5520758897716	-0.16656581709951784
149	0xbfb08c8978f6036a	-0.06464442446850929
150	0x3f1803548b2de800	9.16023589478121e-05
151	0x3fa0491b315258d0	0.03180775620528353
152	0x3f765b7903c42f40	0.00545832892772663
153	0x3fc7c7d92a93f3d4	0.18578638628960553
154	0x3fc3f61dbf8baf82	0.15594837048353943
155	0x3fc9c8c71fc4a14e	0.20143975306678857
156	0xbfa0686afc4e7300	-0.03204664544975877
157	0xbfb55fe83f6b0c1c	-0.0834946780042149
158	0xbfb9b6519bc87acb	-0.10043821385668676
159	0xbf9758ab187e3780	-0.022799180383621387
160	0x3fc010a0e57d5e84	0.12550746160080817
161	0xbfb485e587a65efc	-0.08016809999241653
162	0x3f7318a03ef70540	0.004662157021301738
163	0xbfb6b44cf435029c	-0.08868866884314247
164	0x3fae051c4dcc3f08	0.05863274049454331
165	0xbfcb10a1ad2f9863	-0.21144505459159565
166	0x3fc322d8abc6122c	0.14950092685116212
167	0x3fc1ef76708a3d84	0.1401203202735638
168	0xbfbe74ea6086fe52	-0.11897148949264505
169	0xbf9636402d557488	-0.02169132496543516
170	0xbfab8ed76ac13b1c	-0.053824168950646206
171	0xbfb11f6dad2ae4b2	-0.06688580968593064
172	0x3fb9b466956b4da8	0.10040894649437482
173	0xbfbf7804a68cdf19	-0.12292508188408781
174	0x3fc23cbc3a780b42	0.14247849326064893
175	0xbfbe6f80ce966747	-0.11888890308037246
176	0x3fc0aa273a51c65e	0.13019266460064477
177	0xbfb3265bace9dea0	-0.07480404826662346
178	0x3fb213a3554abc28	0.07061215240786167
179	0x3f9c155d7d629b70	0.027425251748947443
180	0x3fa075ff45380838	0.03215024681050277
181	0x3fca58b232add2fc	0.2058317897277887
182	0x3fcd58fdc02ee134	0.2292782963174972
183	0x3fbc30421ef529bc	0.11011136298944896
184	0xbfc8164ce3aa6eb4	-0.18818055263988287
185	0xbfb23daad4311488	-0.07125346832715895
186	0xbfc02a54459de7d5	-0.1262917842794297
187	0xbfbb12c3f451b9b0	-0.10575508799386202
188	0x3fc23826710ba770	0.142338566968927
189	0x3faada12ac3d1fc8	0.052445014500846876
190	0xbfb08be25961af6c	-0.06463446314017823
191	0x3fc99ce9a4b7a844	0.2001010946544871
192	0xbfbeaa0dc7f87515	-0.11978231556027581
193	0xbfb99b301aea9b65	-0.10002422959460729
194	0xbfc10e8413930790	-0.13325549083498034
195	0xbfa79ee0faa8cbc4	-0.046134024236742316
196	0x3fca188f261db99a	0.20387448655260415
197	0x3fca9ecd67647ad0	0.20797126339399208
198	0x3fb0a3ec1cbc4be0	0.06500125600386708
199	0x3fa50216a38aebf8	0.041031558479026786
200	0xbfc446014f3f6ce8	-0.1583863865806514
201	0xbfaec697ec702aa8	-0.06010889779289147
202	0x3fc902dc37572d64	0.19539978696989657
203	0x3fcb3f8993cf8772	0.2128765079242459
204	0x3fcd90aed12708ba	0.23097787106059348
205	0x3fc1ae0008542cc2	0.13812256247215343
206	0x3fd0ed1af75bc17c	0.2644717612847882
207	0x3fa40ee95ed36098	0.03917626650371736
208	0x3fb698b9ad987a24	0.08826790321516192
209	0x3fc8e736757531b8	0.1945560525440564
210	0x3fc64f6248bc8188	0.17429760505275405
211	0xbfc0c75ad6293cb6	-0.13108382660946
212	0xbfc678ab2bbfd985	-0.17555751453592108
213	0x3fc952ea03cc9b84	0.1978428381491676
214	0xbfb7082185f63d6c	-0.0899678184562071
215	0xbfc22c8a156bfa49	-0.1419842342947553
216	0xbf8b5e583ebe1060	-0.013363541998622164
217	0x3fc17bd978f1e688	0.13659208684457647
218	0x3fc12094f6915650	0.13380682029189694
219	0x3fb34daab1a9da84	0.07540385091292917
220	0x3fcf6d3c22d0565a	0.24552108478444518
221	0x3fb83cbe7587d4c4	0.09467687959098031
222	0xbfbbcd818dbca3cf	-0.10860452375767625
223	0x3fca22af528824c4	0.20418349771379074
224	0xbfb4fa5009241a1e	-0.08194446776551742
225	0x3f99e95bf2ec4d20	0.025304257108541894
226	0xbfa13141c9f1c54c	-0.03357892599241072
227	0x3fc4a63e76369472	0.16132336399201425
228	0x3fa70b5962d16008	0.045008462250450576
229	0xbf9e8ae16e808e48	-0.029826662415997768
230	0x3fd0e343f421879d	0.2638711818782385
231	0xbfb32144faeb2616	-0.0747264015764347
232	0xbfb2001145a4c162	-0.07031352949411976
233	0xbfc5c2db8f18e043	-0.17000908362547493
234	0x3fc0a521c5226c08	0.13003942609506702
235	0x3fb140b53e78dd88	0.06739361548613065
236	0x3fb13ce05aaa9614	0.0673351498940849
237	0xbfbc43f2c68e76c4	-0.11041180942126078
238	0x3fb658b924339ec8	0.08729130872563495
239	0x3fadead0657566a0	0.058432114014704384
240	0x3fc974bf8c0a7182	0.19887537324838084
241	0xbfc17590a71058ec	-0.13640030057349095
242	0x3fc6a22459a9f982	0.17682318094371047
243	0xbfb4b8bd75b0fbb6	-0.08094390986751318
244	0x3f94d327a916cfb8	0.02033674211061484
245	0xbfbc67066e929d70	-0.11094703864602251
246	0x3fc7f0a6ff801a78	0.1870316264687124
247	0x3fb0847d84028c60	0.06452164147280959
248	0x3fa478efa24e4840	0.03998516899368143
249	0x3fa37ecb2a2afbb0	0.038076733491372194
250	0xbfc38d560ed49dfc	-0.1527507374205327
251	0x3fc9b0a0e816c924	0.20070277531119374
252	0xbfcb94e3c1c4f758	-0.21548125230213588
253	0x3fc82130d6624856	0.18851290195431386
254	0x3fbe746f9265a468	0.1189641697325371
255	0xbfb2eb368d89e2f6	-0.07390156703503323

bias f8 [1, 16]
0	0x0000000000000000	0.0
1	0x0000000000000000	0.0
2	0x0000000000000000	0.0
3	0x0000000000000000	0.0
4	0x0000000000000000	0.0
5	0x0000000000000000	0.0
6	0x0000000000000000	0.0
7	0x0000000000000000	0.0
8	0x0000000000000000	0.0
9	0x0000000000000000	0.0
10	0x0000000000000000	0.0
11	0x0000000000000000	0.0
12	0x0000000000000000	0.0
13	0x0000000000000000	0.0
14	0x0000000000000000	0.0
15	0x0000000000000000	0.0
