A2-神经网络基本原理简明教程/step5-NonLinearClassification/mnist_64_16/w_784_64_Xavier_init.npz (npz, 402428 bytes, 2 tensors)

weights f8 [784, 64]
000000 a1 f9 ec 23 c9 80 ab 3f b6 da b3 13 32 5f 96 3f
       0.053716931949099996 0.021847517445133767
000010 42 9f c2 a3 a7 d0 b2 3f e5 5f ff 53 f0 43 ac 3f
       0.07349632022908018 0.055205831769569426
000020 e4 e7 c7 de 25 f6 90 bf d7 92 ac 9d d9 5a ab 3f
       -0.016563979837861967 0.05342750596745354
000030 86 43 99 88 13 8e 90 3f de 9b 97 e7 8a ac b4 3f
       0.016166978084871463 0.08075779108149514
000040 7a 83 70 f4 29 7a a7 bf 32 ac 6d 88 7b b6 b2 3f
       -0.045853911484534174 0.0730969627453966
000050 a0 7f fc 56 e9 a3 77 bf f0 08 2c aa 28 bb 60 3f
       -0.00577155254703135 0.0020423692925542955
000060 a6 53 db fb 7d 9f b0 3f db bd 1e f7 21 41 ad 3f
       0.0649336566815025 0.05713754788973421
000070 20 4e a2 48 5b f0 6b bf c6 0c f7 8a 50 13 91 3f
       -0.003410509384659269 0.016675241929772232
000080 9a 4b b3 15 7a a2 97 3f e4 86 74 3c c5 9d b2 3f
       0.023080737661824814 0.07271988607365248
000090 be cf e1 84 65 9e 9b 3f a8 ee 4b 8e f7 81 78 3f
       0.02697142242000416 0.0059833212042083375
0000a0 72 6b 80 28 41 07 9e 3f 32 76 66 4f d8 68 95 bf
       0.029324548813842673 -0.020907764288145177
0000b0 3b 5b e1 fc 13 51 a0 3f de 91 91 a9 ed b5 ad bf
       0.03186857664029793 -0.058028628300949
0000c0 40 7f 17 b1 c8 9f 4b bf da 25 d2 21 98 86 97 3f
       -0.0008430223407991169 0.022974373878730116
0000d0 8d 22 ba 99 1d 75 ac 3f 6c 41 d5 42 e1 47 84 3f
       0.055581021323694114 0.009902725078661155
0000e0 0a 52 30 0d 3d 36 b0 3f 92 89 21 34 66 f8 9f 3f
       0.06332761356345187 0.031221005374740658
0000f0 ab 57 65 0a d0 1b ab bf 33 de 88 30 78 14 a6 bf
       -0.05294656874563882 -0.043124919819487316
000100 74 8d 72 0c 1e 76 87 bf 20 61 5f ad 93 ec 5d 3f
       -0.011455759768358866 0.0018264238510621936
000110 b9 61 03 13 70 c0 a4 3f 00 a7 e6 5c ca 5e 97 bf
       0.04053068382353637 -0.022822534485078982
000120 56 85 2a c3 eb 5b b1 3f 68 1a ba 25 64 ad a0 bf
       0.06780885233685771 -0.03257286987814184
000130 88 12 91 b2 6a 79 b4 3f 70 1c 21 97 54 05 6c 3f
       0.07997767314470583 0.0034205104975942244
000140 fb e8 22 f0 4f 9b a3 3f ad bf 74 6e 09 9a a4 3f
       0.03829431349136488 0.04023770783749057
000150 e2 2c 27 79 23 60 a0 bf 7c ce cd d2 36 d1 86 3f
       -0.031983479060352385 0.011141231830811942
000160 98 1d 2c 1f 6b 4a 98 bf 40 4c ab eb 89 64 73 bf
       -0.023721383836372206 -0.0047345531008487485
000170 08 6e a8 65 2b cc b3 3f 6b 7a 4a dc 24 b9 a3 3f
       0.07733412963755637 0.03852191151712677
000180 d2 db 67 46 47 f5 91 3f da a1 c2 69 3f 37 9a bf
       0.01753722541067388 -0.02560137827882323
000190 fa b9 ef 54 f8 23 b2 3f 3e 0e a4 e1 d5 af 91 bf
       0.07086135934489582 -0.017272321602844302
0001a0 08 a7 a2 f9 a1 35 80 bf e2 c8 4f 85 47 c1 90 3f
       -0.007914796286360395 0.01636230231447023
0001b0 f4 38 d7 28 10 2b a6 bf a1 c9 a0 9d ee 9e a1 3f
       -0.043297295556486676 0.03441568063898904
0001c0 6e fe 2e 50 d4 99 91 bf c8 1c ae 90 c6 fe 78 3f
       -0.017188374895111762 0.0061023479892192214
0001d0 b3 57 6b 8c cf 8d ad 3f 54 06 e2 00 54 15 af bf
       0.05772255505659931 -0.06070959578302096
0001e0 e1 69 84 b8 6f 50 af 3f 46 ec b4 ed 66 0f 93 bf
       0.06116055610091898 -0.0186134417137789
0001f0 d7 a2 9e 9d 0f c7 af 3f b4 34 ec 2f af 70 b3 3f
       0.062065589895899435 0.07593817634570393
000200 50 88 62 8f 3d 33 b5 3f 90 15 65 4e f5 bf 62 3f
       0.0828131175099156 0.002288798440676039
000210 b8 55 92 23 a0 ef 74 3f a8 1b 87 91 44 84 98 bf
       0.005111337225704053 -0.023942061788854524
000220 06 30 39 13 bc 67 a9 bf 60 2e 78 9f 6d c7 85 bf
       -0.04961955771122466 -0.01063428538238681
000230 df 4d c7 5e d4 8f aa 3f 32 31 54 5e 8f dc aa bf
       0.05187858254398824 -0.05246398951030286
000240 1f db 93 96 2b a5 9f bf 9a 04 0d 2d 54 a1 b1 3f
       -0.030903512063527146 0.06886793231844238
000250 80 bc 95 f3 3e e5 45 bf 2c 28 1f cf 14 e8 b3 3f
       -0.0006681973820103077 0.0777600293796758
000260 96 f1 1b 47 46 32 b5 3f 20 3e 18 b0 b2 23 52 bf
       0.08279837833464962 -0.0011071438788156154
000270 75 69 33 e3 d9 e0 ab 3f dd 1f 8d 38 e7 a6 ab 3f
       0.05444985292861563 0.05400774541209306
000280 0e a1 c5 cb 4b 24 b2 3f d8 99 9f 12 58 5e b0 3f
       0.07086633419897145 0.06393957571672304
000290 ed bd 4d b8 b6 3b ad 3f fc fe ca 86 93 70 87 3f
       0.05709620475579045 0.011445190955214006
0002a0 31 fc 0e f5 e5 5b a9 3f ee 35 72 81 e9 21 b2 3f
       0.049529253162738825 0.07082995806032219
0002b0 72 ac 6e 2c e5 79 b0 3f 57 d0 01 22 8e 12 a3 3f
       0.06435997328542145 0.03725093999028733
0002c0 bc 2a 5a c4 dd f2 ab bf 2a 40 cb d0 6e fd a9 bf
       -0.05458729764821643 -0.05076166437868353
0002d0 4e 38 9b 5f ec 08 96 bf cc 21 bb fa e0 14 94 bf
       -0.021518414817187463 -0.019610896399884045
0002e0 34 97 b6 af c3 80 a6 bf ec dd 2c 49 4c a3 89 3f
       -0.04395114440857953 0.012518497450954201
0002f0 0e fb 46 37 76 e5 a1 bf fa 97 7b b3 43 4f 9b 3f
       -0.034953779456818976 0.02666955740905761
000300 a0 96 b2 27 ef 33 56 3f 32 6c ec 8a 4c 76 a2 bf
       0.0013551555155485798 -0.036058799704015945
000310 a9 6b 86 94 76 7a a1 3f 14 fa 0a da d8 57 93 bf
       0.034137445097449266 -0.018889797504693176
000320 52 b9 53 91 27 e3 a9 bf 5a eb 56 d0 0a 3f 97 bf
       -0.05056117676746176 -0.022701424566302954
000330 9a 7c 30 c8 a2 0f a5 bf 2b 03 dd 8a b5 35 a2 3f
       -0.04113491719930913 0.03556601829632763
000340 2a 19 30 e1 4f ab b0 3f 93 c5 30 7a 18 f6 a0 3f
       0.06511401412726472 0.0331275605352729
000350 02 43 8b 25 3e cd a4 bf fa ab 0b c9 d2 ea b4 3f
       -0.040628377993590106 0.08170812042560263
000360 e4 aa 45 ea 33 9e 8d 3f 20 69 30 5e 26 4d 76 bf
       0.014461904131811427 -0.005444669604026481
000370 20 98 b6 06 5c a2 5f 3f 7f d8 f0 6f d7 f5 a1 3f
       0.0019307993596640108 0.035078747191094266
000380 9e 49 6e 8b b4 16 a0 bf 28 d5 57 45 48 b9 b3 3f
       -0.0314232273296 0.07704593365618406
000390 c8 82 1a 83 76 08 7c 3f 58 6b d5 3e 06 4e a8 bf
       0.006844008386594332 -0.047470278902173646
0003a0 c4 9b f1 4a 97 e6 84 3f 14 c8 0c 8c 89 6c b0 3f
       0.010205442404368166 0.0641561476629991
0003b0 3c 3c de be e5 ea b2 3f 38 7c ef 7d 33 6b 74 3f
       0.07389675054422268 0.004985047474263253
0003c0 9a c2 eb 9b e6 77 b2 3f 39 3d e7 b1 23 00 ae 3f
       0.07214204126990822 0.058594813791950924
0003d0 45 e7 50 58 7f 64 ac bf f8 ae 10 21 6f 39 73 bf
       -0.05545423462940716 -0.004693445299419834
0003e0 e4 c2 f9 08 80 40 8d 3f 00 fa 6f 11 25 89 8c bf
       0.014283180498041621 -0.013933457941672778
0003f0 d0 18 29 c9 06 b6 63 3f 04 a7 1b b1 16 aa 94 bf
       0.0024061329397993894 -0.020180086669745925
000400 0e ff ea 0b c7 9d ab bf 21 ec d3 eb d3 36 a1 3f
       -0.05393812199099389 0.03362142804868307
000410 a0 3e 95 2d b6 77 6e bf d8 d6 63 cd 61 13 74 3f
       -0.003719192329903212 0.004901296653988495
000420 c2 33 40 5c 89 d0 90 bf fc 80 67 70 f8 ee b0 3f
       -0.016420503860036247 0.06614639991994758
000430 46 bd 5f 71 53 34 b2 3f b1 96 52 b5 bd 13 a5 3f
       0.07111093061370352 0.04116623724375524
000440 56 b0 6e d5 3b 75 aa bf d8 de 38 67 36 bf 72 3f
       -0.05167567234397612 0.004576885712189692
000450 38 c1 a2 11 4e e0 7d 3f 78 6f 28 f7 59 53 a9 bf
       0.007293992001152376 -0.04946404592575865
000460 18 cf 59 f8 e8 33 ae bf a3 8f 71 4a d0 e5 a7 3f
       -0.058989792171727895 0.04667521389708831
000470 64 50 6e bd d9 51 88 3f b4 db c8 6a a7 5f 87 bf
       0.011874867528412554 -0.011412914224917838
000480 80 30 d4 e7 84 38 72 bf 40 71 30 58 24 81 6c bf
       -0.004448432123592139 -0.003479548440294661
000490 f3 f6 70 25 76 aa a8 3f b4 d5 99 63 66 38 86 bf
       0.04817551810309153 -0.010849761881426591
0004a0 a8 56 dd 0a 46 56 70 3f 94 4c 2b be 0b 61 a5 bf
       0.003988526919632619 -0.04175602623367883
0004b0 74 0e 58 27 b2 f2 b0 3f 1b c3 61 f1 a9 05 a9 3f
       0.066203245740377 0.0488713366656894
0004c0 88 c2 6c 78 3a 5d 73 bf 7b c2 3d 6e ce 9b ae bf
       -0.004727581405675203 -0.05978245826452607
0004d0 49 13 50 cf 7e 45 af bf 51 6e d9 78 b6 a4 a5 3f
       -0.06107708244966276 0.042272283794514316
0004e0 9e 15 8f 1f 48 8e a1 bf 2c d3 d7 b7 b3 73 a3 bf
       -0.03428864846459166 -0.03799211138895084
0004f0 e4 2a a3 7b cc bc 8e 3f 50 cf 7b 53 b5 f2 6c 3f
       0.01500854255973167 0.0035337010884805356
000500 9d 20 be 45 0b bf a0 3f a5 c6 af 79 89 75 a7 3f
       0.03270755030013215 0.045818611244510955
000510 b0 25 1f a1 b0 0a 9c bf 42 7b 38 1c 11 38 aa bf
       -0.02738452895554183 -0.051209006018544403
000520 6a bf 75 bd 39 ea a7 bf 25 d3 4b 31 f2 ca a5 3f
       -0.046708874108729884 0.04256398059616221
000530 04 5b 83 f2 04 c8 a9 bf a1 50 2d f9 94 8e a2 3f
       -0.05035415134778101 0.03624406377517287
000540 36 70 35 6f d9 5f b5 3f fd f1 b5 98 ca 29 a6 3f
       0.08349379506165708 0.04328759302277161
000550 a0 9d 29 c3 5b 61 a3 bf 3a 6e 0e af 6a 2c 9b 3f
       -0.037852161000780926 0.02653662389239584
000560 00 bc 89 ac 3d 14 87 bf f4 a3 b4 73 ba 18 80 3f
       -0.011269075229590086 0.007859665542655471
000570 70 58 3c 92 d3 5e b2 3f cd e6 1b f3 57 77 aa 3f
       0.07175943680008046 0.051691769052877846
000580 5b 64 58 0a 77 95 ad 3f e3 0c 58 a6 74 65 a1 3f
       0.05778095246586964 0.033977170282037304
000590 e2 69 f8 b2 81 d8 b0 3f 52 04 af da 9e 1b ab bf
       0.06580362910646145 -0.052945102877409625
0005a0 14 35 43 92 58 db b2 3f 9d 7f 2f 6a 4d 2d a8 3f
       0.07365945406782642 0.04722062989435403
0005b0 a5 f4 1d 96 97 15 a0 3f 53 38 ee 03 05 68 ad 3f
       0.031414734911757315 0.057434231500437825
0005c0 58 49 ad 29 f3 ff b0 3f 1b b0 ec 01 c5 5b ab 3f
       0.06640548484327746 0.05343452118390265
0005d0 86 a0 27 c3 45 72 ad bf 47 25 55 5d 84 4a ab bf
       -0.0575124550558153 -0.05330289496721235
0005e0 70 02 a2 5c f5 c7 a1 bf 68 b5 a9 33 63 ac 8f bf
       -0.034728686864586744 -0.015465521825911835
0005f0 32 2b 84 c8 53 30 98 3f f0 e1 46 be 2b 5c 63 3f
       0.023621853936712962 0.002363286434242655
000600 b4 98 46 d0 c2 2f 89 bf 36 4b fc 7c 9e 15 ae bf
       -0.012298128110000618 -0.058758690602323346
000610 ce 9b 78 7d ab 65 98 3f e2 49 e9 72 ca 01 b3 3f
       0.02382533982577311 0.07424607568217526
000620 ee b7 fb 82 ba f5 b4 3f 90 e0 69 4e c0 03 a1 bf
       0.08187452028116102 -0.033231744358034665
000630 6c bb af 1f 06 92 9e bf 78 3e 08 70 ee b4 7d 3f
       -0.02985391205214276 0.007252627751327283
000640 88 47 d7 a2 97 46 b3 3f 34 fb f5 0f e0 3d 89 3f
       0.07529590345009585 0.012325048911177562
000650 ef cd 1f d3 8c 96 a6 3f a8 9e b3 93 e8 91 8e bf
       0.04411735608291766 -0.014926735885139777
000660 20 60 94 1e 9e f2 b4 3f 88 27 15 24 26 88 b0 3f
       0.08182705160686554 0.06457746869014447
000670 69 fa 77 15 1c 60 af bf 80 01 64 00 7d 08 b2 3f
       -0.061280133839308366 0.07044202098405172
000680 f0 cc 8a 00 2d 28 9a bf a4 01 e5 cb 64 e7 83 3f
       -0.02554388347443831 0.009718692276351977
000690 af 0f 5a 7e 7d 28 af bf 0c 36 79 fe 93 59 b0 3f
       -0.06085579078083413 0.06386685335856884
0006a0 64 2f dc d4 20 40 a5 bf ba cd af 70 e5 ad b0 3f
       -0.04150488470449323 0.06515344620839061
0006b0 8d 8d eb fb 28 ef aa 3f ca c1 ae 57 bc f0 a5 bf
       0.05260589671322711 -0.04285229273171216
0006c0 b2 d1 72 87 6f cb a0 bf 44 19 65 26 04 2e a0 bf
       -0.03280209091591092 -0.03160107582748364
0006d0 6d 07 ab fd 04 26 a2 3f 1c 94 5c 2e ee 58 8a 3f
       0.03544631573232846 0.012864933767170732
0006e0 a9 f8 51 4f 1c 89 a8 3f 38 7c ad b7 ac ca 7f bf
       0.047921070749894774 -0.007761645009707378
0006f0 8a 55 27 6b 44 d3 b0 3f 82 3c 67 25 10 b2 9a bf
       0.06572368255668529 -0.026069881709017036
000700 30 5e 7c 3d a6 6d 67 3f b3 c0 63 ba 52 40 ad 3f
       0.0028599020842070763 0.05713137173904794
000710 2e 8c 67 29 14 18 b0 3f 90 65 c0 74 d6 43 86 bf
       0.06286741267062787 -0.010871577680563488
000720 8b 9b c7 55 b8 d0 9f bf fa a6 65 3a f1 5f b5 3f
       -0.031069641337946357 0.08349521327695789
000730 27 5b f0 10 99 b6 a9 bf ef 9f cb e7 b5 dc ad bf
       -0.05022123653195925 -0.058324513001764326
000740 9a bb 0f fd ab 55 aa bf d2 36 44 d3 45 29 92 3f
       -0.051434874192515426 0.017735568065339553
000750 90 6d 80 03 d7 83 9c bf 90 b3 1f de d3 10 6f bf
       -0.027846679295277676 -0.0037922037163213365
000760 e0 7a 72 2f ca 9c 81 bf 01 a2 2f 83 2e 36 ad bf
       -0.008599834034894227 -0.057053998483585396
000770 64 c9 1e eb 21 16 8f 3f 42 86 d9 5b 0f 21 b1 3f
       0.015178933131981771 0.06691070549416003
000780 d2 ab fa 61 91 b7 98 3f 3e 86 22 17 89 6e b5 3f
       0.024137755971121617 0.08371788801971378
000790 d7 2e c1 0b 0e 61 ad bf b2 a8 cb 4a 05 73 96 3f
       -0.05738109487046266 0.02192314404502644
0007a0 e4 0c d6 6d c6 8b a2 bf 75 44 6c ff 93 e4 a5 3f
       -0.036222649486285424 0.042759537629657375
0007b0 38 7a d3 ad 10 93 71 3f 82 80 65 04 30 c5 90 3f
       0.004290642883658928 0.016377210872974952
0007c0 a7 ec a4 f5 44 c0 a5 3f 20 e0 e6 18 2f 62 56 3f
       0.042482523904675155 0.0013661823210053894
0007d0 65 69 ff 61 b5 ef a9 3f 4c 57 d8 60 f0 7a 8d 3f
       0.05065695592175493 0.014394643741109235
0007e0 98 12 e0 1c 6f 1d b3 3f ee 05 15 e4 a8 17 99 3f
       0.07466787772143346 0.024504317208316743
0007f0 b6 2d f3 ff a0 d8 9a bf b5 d2 9b 1e 7a f2 ab 3f
       -0.02621699869341195 0.054584327923213584

bias f8 [1, 64]
000000 00 00 00 00 00 00 00 00 00 00 00 00 00 00 00 00
       0.0 0.0
000010 00 00 00 00 00 00 00 00 00 00 00 00 00 00 00 00
       0.0 0.0
000020 00 00 00 00 00 00 00 00 00 00 00 00 00 00 00 00
       0.0 0.0
000030 00 00 00 00 00 00 00 00 00 00 00 00 00 00 00 00
       0.0 0.0
000040 00 00 00 00 00 00 00 00 00 00 00 00 00 00 00 00
       0.0 0.0
000050 00 00 00 00 00 00 00 00 00 00 00 00 00 00 00 00
       0.0 0.0
000060 00 00 00 00 00 00 00 00 00 00 00 00 00 00 00 00
       0.0 0.0
000070 00 00 00 00 00 00 00 00 00 00 00 00 00 00 00 00
       0.0 0.0
000080 00 00 00 00 00 00 00 00 00 00 00 00 00 00 00 00
       0.0 0.0
000090 00 00 00 00 00 00 00 00 00 00 00 00 00 00 00 00
       0.0 0.0
0000a0 00 00 00 00 00 00 00 00 00 00 00 00 00 00 00 00
       0.0 0.0
0000b0 00 00 00 00 00 00 00 00 00 00 00 00 00 00 00 00
       0.0 0.0
0000c0 00 00 00 00 00 00 00 00 00 00 00 00 00 00 00 00
       0.0 0.0
0000d0 00 00 00 00 00 00 00 00 00 00 00 00 00 00 00 00
       0.0 0.0
0000e0 00 00 00 00 00 00 00 00 00 00 00 00 00 00 00 00
       0.0 0.0
0000f0 00 00 00 00 00 00 00 00 00 00 00 00 00 00 00 00
       0.0 0.0
000100 00 00 00 00 00 00 00 00 00 00 00 00 00 00 00 00
       0.0 0.0
000110 00 00 00 00 00 00 00 00 00 00 00 00 00 00 00 00
       0.0 0.0
000120 00 00 00 00 00 00 00 00 00 00 00 00 00 00 00 00
       0.0 0.0
000130 00 00 00 00 00 00 00 00 00 00 00 00 00 00 00 00
       0.0 0.0
000140 00 00 00 00 00 00 00 00 00 00 00 00 00 00 00 00
       0.0 0.0
000150 00 00 00 00 00 00 00 00 00 00 00 00 00 00 00 00
       0.0 0.0
000160 00 00 00 00 00 00 00 00 00 00 00 00 00 00 00 00
       0.0 0.0
000170 00 00 00 00 00 00 00 00 00 00 00 00 00 00 00 00
       0.0 0.0
000180 00 00 00 00 00 00 00 00 00 00 00 00 00 00 00 00
       0.0 0.0
000190 00 00 00 00 00 00 00 00 00 00 00 00 00 00 00 00
       0.0 0.0
0001a0 00 00 00 00 00 00 00 00 00 00 00 00 00 00 00 00
       0.0 0.0
0001b0 00 00 00 00 00 00 00 00 00 00 00 00 00 00 00 00
       0.0 0.0
0001c0 00 00 00 00 00 00 00 00 00 00 00 00 00 00 00 00
       0.0 0.0
0001d0 00 00 00 00 00 00 00 00 00 00 00 00 00 00 00 00
       0.0 0.0
0001e0 00 00 00 00 00 00 00 00 00 00 00 00 00 00 00 00
       0.0 0.0
0001f0 00 00 00 00 00 00 00 00 00 00 00 00 00 00 00 00
       0.0 0.0
