A2-神经网络基本原理简明教程/step5-NonLinearClassification/mnist_64_16/w_784_64_Xavier_init.npz (npz, 402428 bytes, 2 tensors)

weights f8 [784, 64]
0	0xbf72c10946595fe0	-0.004578624944393511
1	0xbfa5393e6b7657c6	-0.04145236074252483
2	0x3faddd02983232a1	0.058326798514007246
3	0x3fb40082995dda22	0.07813278431226725
4	0xbfa31d90975a239c	-0.03733493659553419
5	0xbfa0bac79c4363cb	-0.0326750162364032
6	0xbfaa7e71099ec7d4	-0.051745922493310254
7	0xbf9f3516a14e54f6	-0.030475953669868404
8	0x3fa123f8892198f5	0.03347756074872336
9	0x3fa62f06ea3eccc3	0.04332753762664645
10	0xbfa9dc3da6423ce8	-0.05050842909360559
11	0x3fa4af4ba8be872f	0.040399898861564025
12	0x3fb204da0cc70d92	0.07038653194381642
13	0xbfaba2259d11659e	-0.053971457885107585
14	0xbfacff3cb637f913	-0.05663480495785413
15	0xbfac1f6781bb99c5	-0.0549270959725621
16	0x3fb025297f5f26e4	0.0630670486417802
17	0x3fa4ec8e7471f3a5	0.040867282595150635
18	0x3f7118e2da83dde8	0.004174123904014483
19	0x3fa08a1a8f771ac5	0.03230364800724809
20	0x3f4099849baf0c40	0.0005065820217783415
21	0xbf9f7fe28734d7b1	-0.03076127958521341
22	0x3fb316c6b2316710	0.07456628656782649
23	0xbf4e318770701c00	-0.000921431667735173
24	0xbf7ae01140128dc8	-0.006561343559187312
25	0xbf85d30a54dca944	-0.010656433787137438
26	0x3fae5b114e361089	0.05928854064680517
27	0x3fb4d3a8fbd97eb0	0.08135467671081176
28	0xbfa55065b372271e	-0.04162900748731445
29	0xbfaabffab42e0b98	-0.052245935911762575
30	0x3fb137142b5daf46	0.06724668558825639
31	0x3f942dfc2cea9eda	0.019706669084057583
32	0x3fb3230f86eb1082	0.07475373309995528
33	0x3faf4bfe0e4e0f8f	0.06112665104504266
34	0x3fb411767f11a0b8	0.07839146234767014
35	0xbf9f621bc4bf3fe7	-0.03064769161557015
36	0x3fa6c60bd8090ff9	0.04447972309256438
37	0xbfae9c59f123504c	-0.05978661602571886
38	0x3fa4c0ee8603b8bb	0.040534452304073786
39	0xbfabc5fc9790d2d8	-0.0542448935524697
40	0xbfa1299b0d49969c	-0.03352055108261462
41	0x3fad761d2d7b8da3	0.05754176311691175
42	0xbfa3da7da69e5d2f	-0.038776327695069994
43	0xbfa1ebbdd77334d2	-0.03500169043545899
44	0xbfaf76d43aeecb92	-0.06145346850771384
45	0xbf9e83065bb61594	-0.029796695087062355
46	0xbfad4a9263f75832	-0.057209562971977226
47	0x3f6c5afdc39a5cb0	0.003461356766660005
48	0xbfa64e6be27cb402	-0.043567057988504146
49	0x3fb4914715983180	0.08034176137170412
50	0x3fb5101ea84f7158	0.08227721795214415
51	0xbfa2e43d09967795	-0.03689757101095307
52	0x3fa3d8c076356e4d	0.038763060025953956
53	0xbfa1b9de653fde30	-0.03462119089084259
54	0x3fb286d832fe2c40	0.07237006421034753
55	0xbf689ffb08052170	-0.0030059721904402356
56	0x3f8e06676bbb81fc	0.01466065213702538
57	0x3fa37c4437d18297	0.038057452977914234
58	0x3fa7e6a97f5fd041	0.046681687162987824
59	0xbf808c6fd2744a08	-0.008080361948064954
60	0x3f74a5caa70e42c8	0.0050409237018278
61	0xbf90665950c8e870	-0.016015430026734057
62	0x3f662f7df2a69490	0.002708192817595441
63	0x3faecbb0d6d43da1	0.06014778730797877
64	0xbfad231ad4326fd2	-0.05690845337196006
65	0x3fb1e1e9d7506896	0.06985341555301469
66	0x3f59dafe96df4e60	0.0015780912612982853
67	0x3faef6dcdb52c6c1	0.060477163098210614
68	0x3fa1671c6433e32b	0.033989798766873434
69	0xbfa939b777e90b28	-0.049268468272677446
70	0xbfa599e8b96bdcc4	-0.04218985808795986
71	0x3f0bd96b5126dc00	5.3118312411219726e-05
72	0xbf8e8aadb573b444	-0.014912945842718746
73	0x3f7646acaded51b8	0.005438494233051143
74	0xbfa73700b708d763	-0.04534151300724323
75	0xbf96ebe64b488e10	-0.02238426050656811
76	0xbf9e028377904fd2	-0.029306463406171997
77	0xbf9751858498c5d6	-0.02277191755110216
78	0x3fb0c05c3db3ba26	0.06543518549344948
79	0x3fac953bcdfd3317	0.05582606210245993
80	0xbf599b249cbceae0	-0.0015628678838328011
81	0x3fa5e688b41a9d9d	0.042774459824893564
82	0xbfa89631b0db1155	-0.048020890082201596
83	0x3fb424d129d2461a	0.07868678351430738
84	0x3faf3dc29e039f99	0.061018068112218056
85	0xbfad1166aa3febaf	-0.05677338436358725
86	0x3f9f53ddaccc5d0a	0.030593360587855258
87	0xbfa74fcdb3ba0704	-0.045530727566996304
88	0x3f9c21611acf73be	0.027471081982969763
89	0xbfa4645107dc6231	-0.039827854356364496
90	0x3fa7f14ac0b9cbd3	0.046762786890120055
91	0xbf9aeff38d59295e	-0.026305966856207667
92	0xbfa5cf44faa3813c	-0.042596965404074955
93	0xbfad3ee4afd0a4ca	-0.05712046285800339
94	0x3fa6a8b26ccc23ab	0.044255805760321586
95	0x3fad11e31d614e0f	0.05677709325450674
96	0x3faee2271018fca3	0.06031915732864348
97	0xbf9804697972a784	-0.023454330480184207
98	0x3f8d3b270026a8bc	0.01427298039637425
99	0x3f8d02fe5383cecc	0.014165865825339984
100	0x3f748ac14db6f8a8	0.005015139667589853
101	0xbfa0b06b5cb1c0cc	-0.03259597307703785
102	0x3fb414a623c074c8	0.07844007847639312
103	0x3fb258cca36a4ba4	0.07166747083310426
104	0xbf9e5a0dfa06549c	-0.02964040602235639
105	0x3fa991b0379c5c4f	0.049939638889718745
106	0x3f983552c2b80ac2	0.02364091218442855
107	0x3f92b081969f511a	0.01825144273591759
108	0xbfa6e2f40a4611ea	-0.04470026612674245
109	0x3f93831e88647946	0.019054867815719655
110	0xbf6950d700e259d0	-0.003090305260296612
111	0xbf98789648462ce6	-0.023897503052961698
112	0x3fb45edef2727bcc	0.07957261485215311
113	0x3fa724a7f5fa158f	0.045201538826442726
114	0xbfa92eb9f78a0cf5	-0.049184619395441866
115	0x3f92acbe2d6b4bba	0.018237086794055314
116	0x3faee6141ff1fed9	0.06034911050755704
117	0x3fb0d8d84b8cac18	0.06580879063101042
118	0x3f9e5c26577a2b72	0.02964839848440754
119	0x3fa5bc43962dcb2d	0.04245196541059779
120	0xbfa3df671512aa2a	-0.038813802072884165
121	0x3faa384f51907e85	0.05121085997256806
122	0xbf9a9d1d48d69022	-0.025989968844115315
123	0xbf70ee6a4c360120	-0.004133620477091676
124	0xbfa6d78a8a7d9d1e	-0.04461319866714518
125	0x3fa24eb3bdfffed7	0.035756699508053984
126	0x3f8c49ee786773ec	0.013812888192598259
127	0xbf950b294873487a	-0.020550389334694753
128	0x3faf6122e968f6ff	0.061287966720994895
129	0x3fa3330a8a18a603	0.03749878822084087
130	0xbf8fc838847ffe18	-0.015518609565332617
131	0x3fa3b0cc2bfeba41	0.03845823323296261
132	0xbf96e67d678c0b4e	-0.02236362404347441
133	0x3fb54f394ccd6ed6	0.0832401096826588
134	0x3f71cceb7e3c72d8	0.004345817465744438
135	0x3fafbec1b7fb5ecf	0.06200223322747222
136	0x3f8bf33c372f03fc	0.013647528108664979
137	0xbfa9858bbd6990a4	-0.04984699904596937
138	0xbfa8f437fddb3268	-0.048738240946111955
139	0xbfa6b793e5e2ea23	-0.04436933690290725
140	0x3fad79630ce3ee1d	0.05756673366883212
141	0x3f83276e5a0c2714	0.009352552531271686
142	0xbf9a343c134118d4	-0.02558988444823103
143	0x3fb40558f70bf6c8	0.0782065966741029
144	0x3fa4fc06947a77cb	0.04098530352096893
145	0x3f925a86d580396a	0.017923456936892825
146	0x3f93d0c40aab78da	0.01935106577990884
147	0x3fb3a25df90ae8bc	0.07669627504484117
148	0xbf98408b25c2538e	-0.023683714084274103
149	0xbfae902e2fb96904	-0.059693759275164765
150	0x3fb3b0dc49be7698	0.0769174270667129
151	0x3f9aee3c9d19f8ca	0.026299426163398455
152	0xbf9ed44b7ebe179c	-0.03010671578478928
153	0xbfaf19a972aec191	-0.06074265980658134
154	0x3f8bea1c7dc30954	0.013630125606486722
155	0x3fb33082ada509b8	0.0749589609086233
156	0xbf9e047799e029bc	-0.02931391598398546
157	0x3faef9a50b42b229	0.06049838793237356
158	0x3fac18e0eebbbd69	0.05487730898118565
159	0x3f8f79e1fe2d118c	0.015369191712701256
160	0x3fa23ccf5e869a1d	0.03562019375685941
161	0x3fac900b2b418125	0.05578646567369309
162	0xbfa03c047de98b60	-0.03170789753928349
163	0x3fb18f2356c2cff0	0.06859036319912071
164	0x3fa2a25353a7c38b	0.03639469524558255
165	0x3f9d1b1a2fa0eebe	0.02842369952871481
166	0xbfa71b292e147d85	-0.045129095911984364
167	0x3f9a68a2fb30a976	0.02578978212492574
168	0x3fa706d74ad1d7af	0.04497406757666
169	0xbfaf746a781d03eb	-0.06143505779483135
170	0xbfa2884c50e79734	-0.03619612205129244
171	0xbf88e2624f924778	-0.012150543263746746
172	0xbfa55d5cd78d615e	-0.041727925598652446
173	0xbf97acdab53329b6	-0.02312032443004749
174	0x3fa94b3f965c481b	0.04940222464041729
175	0x3faf0bef8a5b330b	0.0606379372016815
176	0xbfaf5cf0e67c7bb2	-0.061255958686380466
177	0xbfaef679144bcf21	-0.060474189498476834
178	0xbf554ba083c79b80	-0.0012997691657063715
179	0x3fb30758c02a9cf0	0.07433085147441765
180	0x3fa406a7f32fdf39	0.0391132816657191
181	0xbf65b417c78a9490	-0.0026493515436692497
182	0x3f741bcf53336c18	0.00490933405236673
183	0x3fb385d15aa81bfc	0.07626064742372302
184	0x3fabda17feae7b8b	0.054398298110064656
185	0x3fa47a1b02028f23	0.03999409102951137
186	0xbf923fd1589ccd24	-0.017821570428350544
187	0x3fb375dd1e09b070	0.07601720794053946
188	0x3f957f7c5c9d7e56	0.020994132187637092
189	0x3f9db273e98119c2	0.029001055838557617
190	0x3faec792d907d6c1	0.0601163759164769
191	0x3fa5951ee4720b41	0.042153325449382446
192	0xbfa69c4c611ef760	-0.04416121182974453
193	0xbf60ec90db9093c0	-0.002065928387781274
194	0xbf91ea806ed3971e	-0.017496115459741828
195	0xbf89c8ff8798ce94	-0.012590404821003966
196	0xbfae9ceb380da687	-0.05979094561810166
197	0x3fa207e4548c998d	0.03521646053404757
198	0x3faef6981c34d523	0.06047511429134491
199	0x3f9fa66bbe3f42b2	0.030908282744180844
200	0xbf5432565de030a0	-0.0012327044892144548
201	0x3fb2d4003a772168	0.07354737689377588
202	0x3fafa785f0b7bcfd	0.06182497561882803
203	0x3fa01da0ead8fe95	0.031476048152851245
204	0xbf974c92bc77a666	-0.022753041031967312
205	0xbfaa8f683d07842e	-0.05187535996424973
206	0xbf9cb9ec33251ec4	-0.02805298864521323
207	0x3f8ec7dc9beb66bc	0.015029643543516762
208	0xbf9b10cd857ccc42	-0.026431285164289393
209	0xbfaea31ec0188e4d	-0.059838257741173885
210	0xbf863e6c91ec94e8	-0.01086125202489048
211	0x3f93bce0103b9ff2	0.019275189390924603
212	0x3f927948b572cdfa	0.01804078681443675
213	0xbfaf34bb7b1af949	-0.060949190881262334
214	0x3faf340c8495682d	0.06094397657825854
215	0x3f764f6f53e99d18	0.005446848749307585
216	0x3fb21073ec752e64	0.07056355021375676
217	0x3f97e00a9527c58e	0.023315587381096452
218	0xbfa8bff8c819063b	-0.048339628625865015
219	0x3fb3b569524816b8	0.07698686846569103
220	0x3f92561f41d1a87e	0.017906654732009468
221	0x3fb06751c6cfc450	0.0640765295390946
222	0x3fa11deb0f0e0fad	0.033431382739791494
223	0x3fa1a7d147f1bc67	0.03448347094751441
224	0xbfa05f1b8b1fc916	-0.03197561333935732
225	0xbfa95bd125f5079d	-0.04952863300651631
226	0x3fa0b0ac1b0a1873	0.03259790258475528
227	0x3fa98640a09ea0e5	0.04985238991440769
228	0x3f92bd858e51a442	0.018301092921692914
229	0xbf8bf24fc2e675f0	-0.013645766387351238
230	0xbf94b65cffca9e42	-0.02022691069819716
231	0xbf936ea218dee65e	-0.01897671963499758
232	0xbf8e86d7e41eece4	-0.014905630730814363
233	0xbfa57817e5c45d96	-0.04193186454557034
234	0x3f8a013db529de14	0.01269767960660232
235	0xbf843f29cb0db3b8	-0.009886099347306984
236	0x3fb55f8610a7dcc2	0.0834888258612976
237	0xbf9e1652e5a5c4b0	-0.029382033602307345
238	0x3fadb957bb0a293b	0.058054677564614875
239	0xbf9de7fb4813efb8	-0.02920525195530363
240	0x3f7bfd4fb2d76648	0.0068333733774693164
241	0x3fae3ca1d91ea43d	0.05905633712183842
242	0xbf70fee0533721b0	-0.004149318952336875
243	0x3f9301490267940e	0.018559590121999085
244	0x3f9d35e7e5522a66	0.028525946971550552
245	0x3fb3a877e085845c	0.07678937179072548
246	0xbf9e60c98d390b9c	-0.029666089291150763
247	0x3fae0c34bdaf5ad3	0.05868687453737711
248	0x3f925a8ea89792ee	0.017923573532146735
249	0x3fb06b56c8ec0498	0.06413786320992398
250	0x3fb3f683ff05faa6	0.07798027969509266
251	0x3f9f6ff3ac2d2462	0.030700499900636287
252	0x3fa6b0da5f630ef1	0.04431803144828262
253	0xbfab9e238d5bc627	-0.053940878873515445
254	0xbfabc69fb89c15a6	-0.0542497551778454
255	0x3f840ddc5c5730ac	0.009792062347422657

bias f8 [1, 64]
0	0x0000000000000000	0.0
1	0x0000000000000000	0.0
2	0x0000000000000000	0.0
3	0x0000000000000000	0.0
4	0x0000000000000000	0.0
5	0x0000000000000000	0.0
6	0x0000000000000000	0.0
7	0x0000000000000000	0.0
8	0x0000000000000000	0.0
9	0x0000000000000000	0.0
10	0x0000000000000000	0.0
11	0x0000000000000000	0.0
12	0x0000000000000000	0.0
13	0x0000000000000000	0.0
14	0x0000000000000000	0.0
15	0x0000000000000000	0.0
16	0x0000000000000000	0.0
17	0x0000000000000000	0.0
18	0x0000000000000000	0.0
19	0x0000000000000000	0.0
20	0x0000000000000000	0.0
21	0x0000000000000000	0.0
22	0x0000000000000000	0.0
23	0x0000000000000000	0.0
24	0x0000000000000000	0.0
25	0x0000000000000000	0.0
26	0x0000000000000000	0.0
27	0x0000000000000000	0.0
28	0x0000000000000000	0.0
29	0x0000000000000000	0.0
30	0x0000000000000000	0.0
31	0x0000000000000000	0.0
32	0x0000000000000000	0.0
33	0x0000000000000000	0.0
34	0x0000000000000000	0.0
35	0x0000000000000000	0.0
36	0x0000000000000000	0.0
37	0x0000000000000000	0.0
38	0x0000000000000000	0.0
39	0x0000000000000000	0.0
40	0x0000000000000000	0.0
41	0x0000000000000000	0.0
42	0x0000000000000000	0.0
43	0x0000000000000000	0.0
44	0x0000000000000000	0.0
45	0x0000000000000000	0.0
46	0x0000000000000000	0.0
47	0x0000000000000000	0.0
48	0x0000000000000000	0.0
49	0x0000000000000000	0.0
50	0x0000000000000000	0.0
51	0x0000000000000000	0.0
52	0x0000000000000000	0.0
53	0x0000000000000000	0.0
54	0x0000000000000000	0.0
55	0x0000000000000000	0.0
56	0x0000000000000000	0.0
57	0x0000000000000000	0.0
58	0x0000000000000000	0.0
59	0x0000000000000000	0.0
60	0x0000000000000000	0.0
61	0x0000000000000000	0.0
62	0x0000000000000000	0.0
63	0x0000000000000000	0.0
