基础教程/A2-神经网络基本原理简明教程/step5-NonLinearClassification/mnist_64_16/w_64_16_Xavier_init.npz (npz, 8828 bytes, 2 tensors)

weights f8 [64, 16]
00000000: 6815 0d3a 9608 bc3f c212 3171 98f1 b4bf
00000010: 549c a104 dd3f b7bf 7e46 f225 05c8 c3bf
00000020: 62a1 c342 ab26 c83f d681 c769 16ea b6bf
00000030: 34c6 4797 9b2d d13f 940b 26d5 9303 b03f
00000040: 6c77 2af8 01b1 b43f f019 c867 3c95 c73f
00000050: f823 0043 5692 ba3f b8ff e3ea de09 cabf
00000060: c2fd a6df c10d c83f 404c 87f4 cd35 a13f
00000070: 62dd fd58 81b8 c83f 40a0 b3a3 8d4c 76bf
00000080: c4b1 3208 bb66 c7bf 3275 287d 3d63 ca3f
00000090: 244a b9cc ec56 ca3f f856 8c0c 593e a53f
000000a0: fc33 068e cf51 d03f a07c 4e5c 0ae5 c23f
000000b0: d60d 9bdd 716f c03f 2877 df55 4a2a b9bf
000000c0: 2553 a60d 407e bfbf 123a 615c 05ff c83f
000000d0: 48ec ef28 e6c8 c9bf e667 b3d8 b06f c6bf
000000e0: fc3b a2b8 3c42 ca3f ccc6 749a 8677 ba3f
000000f0: 82d5 1af6 58a2 ce3f f434 7b5d f5b9 b33f
00000100: b0db cf13 586a bc3f 0aa8 4f46 4817 c03f
00000110: 3c45 6cfe d07e c93f e884 932e a8b7 b53f
00000120: 9637 5dbe c43e c63f c8e5 66bb b067 bb3f
00000130: 2a27 f94d 38a0 cc3f 5806 2066 11e5 c63f
00000140: 1172 e5d6 4235 d03f 59fc af7b 8459 d03f
00000150: aa57 76bc b9c6 cd3f e51c e566 f1f0 bebf
00000160: e4e6 09c1 9b77 b83f 6c4b e189 c970 c73f
00000170: 1cbf c5da d400 be3f 6f98 3fd1 a8fe c7bf
00000180: 7c03 9076 0be3 b03f 90c2 d852 7f9c 8c3f
00000190: 1e9a d70f 9397 cb3f 90fd 40d8 4282 9cbf
000001a0: 00a0 5945 f690 c4bf 1cfb c6bf 8f0d c33f
000001b0: 4a42 14a2 12dc b3bf c324 bd40 8a00 c1bf
000001c0: 4c52 1729 be11 b0bf ed06 7654 1863 cabf
000001d0: 7655 69be 9abf ca3f dcc9 f645 3827 c43f
000001e0: f8fd b6a9 8f0c 90bf 5cfa db92 6c37 bfbf
000001f0: 4a23 6e8b 45c8 c03f 7828 868a 45cb a33f
00000200: cac4 42f1 c64c bfbf e88b e18a 89ce c4bf
00000210: 0c55 1974 531e c7bf f057 3465 78e7 a0bf
00000220: ce80 5040 700a cd3f 306a 1fe9 07ab 94bf
00000230: 21fa 3049 6cc2 c2bf 1141 a2f7 a9e6 b8bf
00000240: c175 34ff f190 cabf 7809 c289 13f8 c2bf
00000250: 8270 a98d 09b2 c3bf c4e9 89d7 d9c6 c6bf
00000260: 8cff da8b f202 ce3f 220e 7116 da24 b2bf
00000270: ea23 3a27 325a c4bf 34b2 081f 428a bc3f
00000280: d865 61c5 6421 ca3f c44e d352 904e c33f
00000290: 3464 2a40 4f69 c7bf e8e3 1615 fe8a bdbf
000002a0: 4860 5373 f0db ac3f 6a75 231d 4fc0 c63f
000002b0: 54a5 7530 8eed b33f b0fc b4a1 4918 93bf
000002c0: 08c1 2ffc 1738 b63f 4272 beb4 e13b c33f
000002d0: afcb f25a e35f cabf 3809 34d3 0619 bc3f
000002e0: b09a a56b 411c 913f d4c4 d5f1 5888 c83f
000002f0: a6db a998 3971 c43f cc54 9319 cc33 bb3f
00000300: 7e95 9378 8604 d03f 5b0d e5e1 94fc cabf
00000310: 380e b948 e01c b43f 7c49 9aff b7c8 a9bf
00000320: 682e 2d3a 7067 90bf 3027 ab45 e885 c53f
00000330: 603b 5653 9d04 b23f 561e 5ad8 e066 c43f
00000340: 267a 7d35 946e c63f 7c0e 6f25 6636 bb3f
00000350: a42f 9ebe 56c3 c93f 2e18 1876 1687 cabf
00000360: 907f 5ec4 b154 c93f 403d 7fb6 5ff3 c53f
00000370: 44c7 c8db 97ac a2bf a4a3 b299 a49b b53f
00000380: 5014 e80f 7083 bbbf a09b d4b1 da1f 83bf
00000390: 815b af4b 529b cbbf eb93 a3ca 679d b8bf
000003a0: 1c78 fb3c 77d2 c7bf 6060 d571 a466 9dbf
000003b0: d0a3 c63a 4f55 b5bf feb2 2642 b063 c93f
000003c0: 9493 43e4 cc4a d13f 2258 289c 842f cf3f
000003d0: 7057 54ae 35d8 b3bf 664c 6f10 4284 cf3f
000003e0: bb1e 328c 7e99 d03f 0e01 ab6c 8158 cd3f
000003f0: a877 206e 5786 98bf fad7 81fb 1e97 cd3f
00000400: 0cce cdc7 a208 c03f 42c3 44d0 1dce d03f
00000410: 8c03 e2d3 5ae9 a3bf ec85 94c0 494d b53f
00000420: 7c46 aa1f 1701 aabf ca32 16eb 6edf c63f
00000430: 4ea4 0fe2 1050 c63f 8095 8676 a21d 943f
00000440: f68f 2ede 5642 ca3f a847 357f b0b0 c73f
00000450: d810 940b c9a9 95bf 86ca 2116 226a b3bf
00000460: 8e86 72fa 842e c1bf e344 0bd5 053d d13f
00000470: 7874 f579 e43a b4bf d057 056c 5f3d c0bf
00000480: f07a fadd 3047 c2bf 37b9 8fe7 7481 c7bf
00000490: 3ada 2fec fe68 ce3f 18a8 ef81 0850 c9bf
000004a0: ac45 f36b 89d5 b3bf aef1 077b 54d7 b7bf
000004b0: 5a28 8eba d35d cbbf a433 1a39 d24e a2bf
000004c0: f426 6954 9134 b13f 5af5 dcab 1b21 b3bf
000004d0: b616 06d5 6343 cf3f 408f a553 e7a1 b93f
000004e0: 44e8 ae3c 2e72 b13f 804f e9f8 112b cbbf
000004f0: 7eab 2c63 d6a0 b5bf ac90 0e6a cc4c cf3f
00000500: 964f 4117 e526 c43f 5c83 8bef f251 b93f
00000510: 4034 a60e cbaf ae3f c051 e744 e453 76bf
00000520: a843 bb75 9fd0 a6bf 44c1 1f1e f832 c03f
00000530: 7f79 b84c 89e3 c4bf b23e 932d 7f87 c33f
00000540: 49e3 9415 3384 d13f 2c6c e073 f50d abbf
00000550: 7212 8aa9 f94a c5bf f623 ab0b 6b05 c5bf
00000560: 3001 a598 5040 c1bf b83b 0388 9f58 b8bf
00000570: 98db 46ed 9bbd b13f 2b79 59f7 8421 c9bf
00000580: 6004 f7d5 6b5c b93f 30fa f0f5 b107 cb3f
00000590: 3c53 1cb4 8a0f cc3f 4a3a 6648 c963 c3bf
000005a0: 92ab 6dc4 9201 c5bf 5ce8 fd03 ec05 b03f
000005b0: 20a3 7a0e 89cc 783f f898 3080 7ca7 a23f
000005c0: 30e8 024f 829e 8ebf 30f6 37a2 1835 a93f
000005d0: ac1c 3f14 afc7 ce3f 1e6b 50de 2fa1 b8bf
000005e0: 48d3 e3f3 30ba af3f f8f9 6af7 bff8 973f
000005f0: eebd ab33 bb25 c5bf a2ad dc9d 0cea c03f
00000600: 8a53 d7b6 d9b7 c13f 7cd7 7d0c 62bc ce3f
00000610: d84e 07ed 5948 b23f d832 56f4 1b6b c7bf
00000620: f85d 2311 f687 a43f 4a19 040f 40ba cf3f
00000630: f070 19e6 379c c33f f0eb e5c9 4bcc a33f
00000640: f8d9 4a4e 167e c8bf d4f6 00a6 20ae a4bf
00000650: 90e0 7cf8 6ae1 c53f 84a9 2995 63a5 c4bf
00000660: 5237 f204 d47f c03f f9b3 730c ae47 bdbf
00000670: 1800 872b acb7 9b3f 206e bdc1 448f d03f
00000680: 148a 1903 4596 b23f 40b7 0778 800f 91bf
00000690: 24c3 2a74 f046 a4bf 0cb2 5c4f 9011 a4bf
000006a0: b8b0 6145 116b 9c3f 86b3 006b 8965 cb3f
000006b0: 00a3 9e55 fa48 423f 5ec2 da77 f97b bdbf
000006c0: 8892 b12e 63e9 983f f6c6 1c8b 30e8 bdbf
000006d0: 26f6 bddd f58b ca3f 7c8f 45d2 af05 ca3f
000006e0: 42f1 3c2b 93d4 ca3f 3466 5b15 5632 b0bf
000006f0: a44a 783a f8ae ce3f c1c0 bc14 6386 c5bf
00000700: 2476 c2db 8453 c43f c39a e994 f160 cabf
00000710: 8444 da19 4b3f b53f 54d0 021e 0d79 b5bf
00000720: ca2d 81dc 6d62 ca3f 341c 8fd2 ce93 b63f
00000730: 1d22 fe53 3148 c8bf 149f eadf 7adc afbf
00000740: 4812 c7b2 7b45 c3bf 184f df62 a945 a73f
00000750: 8e37 bc13 895c c73f 3cca f9c2 d8d0 b43f
00000760: e4a0 e794 5f0c c03f 56f2 5eb4 12f1 cc3f
00000770: c9c6 6b3a 5d04 c5bf b80d 38b2 9042 cf3f
00000780: d0ea 265b 5d4e c9bf 2d28 45b2 5a24 cbbf
00000790: 1652 90f6 d98c c23f c872 1c85 bc12 a7bf
000007a0: de26 638d ed99 c13f 1c0b d5c7 6e2e a9bf
000007b0: 4977 e71a e243 c0bf 4a4d 1deb 5852 c9bf
000007c0: 1896 93ad b48f c33f 1a71 4738 7e07 bcbf
000007d0: 41be 460e 5002 c9bf 92fc 7029 383f cbbf
000007e0: dec4 2566 bc8c cabf b8eb 33ba 031f b7bf
000007f0: c058 57e9 24aa bb3f e8a8 ae30 1cef 97bf
0.10950602452529312 -0.08181145442456297 -0.09081822741573947 -0.1545416293416117 0.18868008384675777 -0.08950939257147836 0.26840867780183264 0.06255458787749851
0.08082592304932995 0.18424182002509282 0.1037954248023566 -0.2034262320448741 0.18791984005473067 0.03361362085311059 0.19313065381332267 -0.005444100646151695
-0.18282258892339887 0.2061535702822908 0.20577774044302644 0.04149130132843298 0.25499333257249623 0.14761476046712563 0.1284010250147804 -0.09830154987818374
-0.1230201752972105 0.19528262148601577 -0.20144345282446552 -0.17528353291601134 0.2051463986904024 0.10338631888296418 0.23932945267521794 0.0770562508798383
0.11099768146219335 0.12571052010690692 0.19918262885088633 0.08483363282313727 0.17379054350970752 0.10705093932383314 0.2236395245293406 0.1788655995042514
0.2532507990452198 0.25546371535160045 0.23262712194690255 -0.12086399805149346 0.09557507956369765 0.1831294940226046 0.11720018712162211 -0.18745908944328302
0.0659644283732756 0.013970370021611417 0.21556318543953606 -0.027840656708801925 -0.16067388902888524 0.14885136474728078 -0.07757679421434563 -0.1328289810283306
-0.06277073386383697 -0.2061491405875623 0.20897230431971153 0.15744689384662436 -0.015672917111940493 -0.12193945489341601 0.13111180599323752 0.038660214576410945
-0.12226527586132643 -0.16255301743794281 -0.18061297577757107 -0.03301597819715585 0.22688105717043644 -0.020183681110078122 -0.14655831884188422 -0.09726965232608033
-0.20754837952783414 -0.14819568850004905 -0.1538707677563061 -0.17794344925262184 0.23446494892959568 -0.0708748154439083 -0.15900256076227431 0.11148465402283919
0.2041440929195193 0.1508350758000373 -0.18290129311643144 -0.11540210738066004 0.05636550338539387 0.17774380610255075 0.07784355815023974 -0.01864733743172725
0.08679342181108407 0.15026494336497548 -0.20605127278176158 0.10975687652902344 0.016709348864788864 0.191660993655694 0.15970535234711497 0.10625911354448475
0.25027620101021586 -0.21083317785278663 0.07856561446629307 -0.05035948748731564 -0.01601958613473045 0.16814902688775524 0.07038291248885065 0.15938959659637203
0.17524960147689334 0.10629881299888128 0.2012737684966598 -0.20724755064310457 0.1978971680482542 0.17148968134868348 -0.03647303159631446 0.08440617325199057
-0.10747433079093693 -0.009338100959736029 -0.21567753501468803 -0.09615181634178753 -0.18611040570880355 -0.028711862037511415 -0.08333296952208902 0.1983547518733743
0.2701904515400255 0.24363763451464232 -0.07751784807291329 0.24622369577864162 0.2593685502147129 0.22926347547582576 -0.02394997224484255 0.23117434769272888
0.12526354557086028 0.2625803502915468 -0.03888973080120825 0.08321057273544569 -0.0507895685342534 0.17869364241450675 0.17431841886653604 0.01964429710792137
0.20514951561665357 0.18507963382086 -0.021155492145241123 -0.07583821335155436 -0.1342321608436134 0.2693495350368506 -0.07902362802038165 -0.12687294744927025
-0.1427975734595388 -0.18363820368490177 0.2375792172676528 -0.19775492043055531 -0.07747706304078034 -0.09312942508399288 -0.21380087479730286 -0.03575760790872742
0.06720836935815183 -0.074723939379472 0.24424407865097003 0.10012670318752459 0.06814850789570054 -0.21225189832568603 -0.08448543473484268 0.24453120401915862
0.15743697772506654 0.09890669201150842 0.05993494561980883 -0.0054510990871289855 -0.044560416337510234 0.12655545683765912 -0.16319385763285862 0.1525725338492428
0.273693820071959 -0.052840872187708804 -0.1663505628422573 -0.1642278487181838 -0.13477523282382142 -0.09510228224392747 0.06929945509806001 -0.19633543088543468
0.0990664861083288 0.21117233761647602 0.21922429842438784 -0.15148273501513848 -0.16411051360350065 0.06259036157089909 0.006054435136015696 0.03643406929795562
-0.014950769458995067 0.04923321705062411 0.2404688691005722 -0.09620951821890997 0.06196740128681327 0.023409842945278897 -0.16521396658889337 0.13214261730295812
0.1384231703547381 0.2401239930147162 0.07141649281339413 -0.18295621328834133 0.04009980162816967 0.2478714059181562 0.15320490584679858 0.03866803016259002
-0.1913478739058545 -0.040390987648135784 0.17094170697396693 -0.16129727156960538 0.12890100709449342 -0.11437499813082742 0.027067842632959666 0.25874442024152877
0.07260543180158435 -0.01666069729429087 -0.03960372369818391 -0.039196500480418534 0.027752179965702978 0.2140361568903268 0.0005580160461607642 -0.11517295051704354
0.024327802395776504 -0.11682418247508139 0.20739625289199742 0.2032985474316965 0.20961227046235292 -0.06326807042514632 0.23971464972472234 -0.16816366684498088
0.158798796944141 -0.20608348628157644 0.08299703007857501 -0.08387834532442301 0.20612881914926923 0.08819286957360434 -0.18970314599234053 -0.062229003747516526
-0.15055795888305767 0.04545335132539047 0.18251145805009766 0.08131174812459901 0.1253776051592076 0.22610696608707553 -0.1641956839808272 0.24421890928361534
-0.1977040000036454 -0.21204694466206445 0.14492344416852693 -0.04506482243434601 0.13751000789334616 -0.04918237866743011 -0.12707163156204107 -0.19782554130743285
0.15282305217185477 -0.10948933481217119 -0.19538307854735318 -0.21286680243972406 -0.20741991985008829 -0.09031699462859322 0.10806494423681823 -0.023373070212678565

bias f8 [1, 16]
00000000: 0000 0000 0000 0000 0000 0000 0000 0000
00000010: 0000 0000 0000 0000 0000 0000 0000 0000
00000020: 0000 0000 0000 0000 0000 0000 0000 0000
00000030: 0000 0000 0000 0000 0000 0000 0000 0000
00000040: 0000 0000 0000 0000 0000 0000 0000 0000
00000050: 0000 0000 0000 0000 0000 0000 0000 0000
00000060: 0000 0000 0000 0000 0000 0000 0000 0000
00000070: 0000 0000 0000 0000 0000 0000 0000 0000
0.0 0.0 0.0 0.0 0.0 0.0 0.0 0.0
0.0 0.0 0.0 0.0 0.0 0.0 0.0 0.0
